3_model_training/model5.pth (torch, 263386 bytes, 26 tensors)

layer1.weight f4 [256, 72]
00000000: 8c65 02bd 4c81 a53d 3578 b63b 9b41 9ebd
00000010: 3983 24bd 9516 37bd 1ef7 11bc 3d31 71bd
00000020: 1021 403d abf8 983d db09 ec3d f6b9 01be
00000030: d492 c13d 6e98 14bd bdaf 043e e728 cdbc
00000040: caa4 ecbd 2e76 19bd 0616 383c 99ae d8bd
00000050: 64e8 033e 2e78 ce3d da7f ee3b 6a72 31bd
00000060: 41d9 8b3c a768 853d 33f7 ad3d 0ea4 a1bb
00000070: 6649 d5bc ed3c 003d 7739 7f3b a1b9 28bc
00000080: ea66 223c 8ff3 2ebd 3d86 bbbb 000f 27bd
00000090: 539b b2bd 6e3a a43c cb38 81bd 31da 873d
000000a0: 227b 193d eaf1 823a f1a6 96bc 7a61 44bd
000000b0: 9a3f 67bd ef62 8e3d 4fbf ee3b 1539 a93d
000000c0: 1087 dc3c 624c 29bd f59a 383d 073c 7b3c
000000d0: ee14 793d 8edf 893c 6d60 a3bd a879 873d
000000e0: b309 0abd 9184 a83c 1da1 a4bd c9ba 28bb
000000f0: 0a88 efbc 880e 293d e61a 93bd 1829 f33c
00000100: e097 10bd 427a 3b3d bddc 60bd 4c8d 9bbd
00000110: 76c5 ebbd 9826 d83a 9255 ee3d 23a9 893d
00000120: 6e79 053d ebb7 9b3c e478 a5bc 4665 82bd
00000130: 4c98 033e 9db5 24bb 7889 983d c78d 203d
00000140: 4859 23bd 231b 8f3c b83f 093e 9efc 10bd
00000150: 4b3f a13b 8f00 513d 2aa4 373c 2a3e 86bc
00000160: cdf3 e43d 675c 8abd 85d6 7fbd 6199 3abe
00000170: 8a2f a03d 11b1 f93c 092b 703c 4dd9 c63d
00000180: 9993 dabd 2477 ab3d 728b e6bc 5a22 2bbd
00000190: 41a1 403d 37f7 da3b 6978 4c3d 1995 c03c
000001a0: 773a fe3b 53f8 2a3d 90b5 c63d 3fd5 cc3d
000001b0: c154 a03d 22a6 58bd 08a7 65bd f9fb ab3d
000001c0: 8d7a 8e3c 6ea4 2f3a 3af2 f1bc e285 85bd
000001d0: 3780 ee3d 8338 543d f9f0 583d b021 39bc
000001e0: ecd0 843d 5c98 c1bc 532e 863d 37a2 eebb
000001f0: b5e7 033e 9d1e 6bbd e4b1 013e 4845 d13d
00000200: cb84 c43d f3d6 95bd 343a 833c ba63 42bd
00000210: b9d5 83bd 53fd a7bd e5bc 8bbd 4f90 81bc
00000220: 3380 ed3c 8349 7b3d fce8 a5bd a882 5bbd
00000230: 386f eabd b33c 773d 7468 ea3d abab 70bd
00000240: 08d7 a5bc 8865 b53d c9a9 1dbd 6a40 89bc
00000250: 071a 12ba 8d66 90bc ae7a 473c 95d3 09be
00000260: 41f5 95bc 44fd 713d e944 8dbe 9618 e23b
00000270: 0172 86bd 0b84 cebd 7889 d13d e859 093d
00000280: f414 a03c 8248 3bbd 2e71 debc 8963 743d
00000290: 74b2 e4bd 2626 08bd 56d6 8d3c c6a4 41bd
000002a0: 0811 31bd f4b5 babc 5026 cbbc f431 babd
000002b0: f9bf c6ba b36c b63b 57ce 24bd 0b84 943a
000002c0: 623f cfbd 0922 713d 40a7 583c a3f7 5dbd
000002d0: 8340 d33c 0c95 4ebb 77b8 a5bd 88e0 5ebd
000002e0: 44cb 153d 7bfa 68bd 1620 80bd eac6 5e3d
000002f0: 2d6d 053c 5021 623d 268b 263d b300 933d
00000300: 8a73 e43c 26d1 b63d 461c 843d ed03 d8bc
00000310: 8379 dc3c de2d 52bc 8c03 b9bd bd96 d9bc
00000320: 968b 503d 0fe3 a63d d343 adba a6c0 a13d
00000330: f5e0 c9bd 4dd7 91bd ca5f e23c 8419 8f3d
00000340: a102 f2bd 676c 643d b1a5 fcbc 66fd b03b
00000350: 515c 87bb 522e c93d 489a 06bd 169f b73d
00000360: 5502 bebd 3dc9 5fbc 6239 263b f5cd 30bd
00000370: e8c2 b23c ed85 7e3d 9504 55bd ebfa fa3d
00000380: ed7a 9d3d b0ea 37bd e349 353e 46be a73c
00000390: ff20 66bc d2f5 9b3d ce5b 423d 73d0 003e
000003a0: a898 b23d 6e12 70bd 07cc 90bd 124c e0bd
000003b0: 4f31 973d 4071 86bd bc59 e43c 3adf 99bd
000003c0: c12d 4ebd bcec 1e3a 3a91 b33d e0f1 01bc
000003d0: 50c2 c5bc 3aba 1b3d 721b b23d df20 cf3d
000003e0: 5d5a 533c 2d95 b63d c04a 053d 6aa1 93bd
000003f0: 2f84 973d 797b 62bc 6e7b dc3d 3990 4a3d
-0.031835124 0.08081302 0.005568529 -0.07727357 -0.040164206 -0.04469927 -0.008909015 -0.058884848
0.04690653 0.07469305 0.11525317 -0.12668595 0.09451833 -0.03627818 0.12957664 -0.025043918
-0.115548685 -0.03746622 0.01123572 -0.10580177 0.12881619 0.10081516 0.0072784247 -0.043322004
0.017071368 0.065141015 0.08494415 -0.004932887 -0.026035976 0.031308103 0.0038944164 -0.010298164
0.009912232 -0.042712744 -0.0057227896 -0.04078579 -0.08721032 0.020047393 -0.063096605 0.066334136
0.037470944 0.0009990309 -0.01839015 -0.047944523 -0.05645714 0.06952464 0.0072859894 0.08262841
0.026919872 -0.04133261 0.045069654 0.015334136 0.060810976 0.016830232 -0.07977376 0.06615001
-0.033700656 0.020571025 -0.080385424 -0.0025746098 -0.029239673 0.041273624 -0.07182865 0.029682681
-0.03530109 0.04577089 -0.054898012 -0.075953096 -0.11512272 0.0016490994 0.11637415 0.067217134
0.032586507 0.019008597 -0.020199247 -0.063669726 0.12851065 -0.0025132664 0.07448095 0.03919771
-0.039880067 0.017468994 0.13403213 -0.035397165 0.004920875 0.051025923 0.011208573 -0.016387064
0.11179314 -0.067559056 -0.06246044 -0.18222572 0.07821567 0.03047994 0.014658698 0.097094156
-0.10672683 0.08372334 -0.028142665 -0.041780807 0.047028784 0.0066823023 0.04991952 0.023508595
0.0077584344 0.041740727 0.09702599 0.10001611 0.078286655 -0.05289281 -0.056067497 0.08397669
0.017392421 0.0006700222 -0.029534448 -0.06519677 0.11645549 0.051811706 0.052964184 -0.011299536
0.06485161 -0.02363222 0.065518044 -0.007282521 0.12881358 -0.057402242 0.12665516 0.102182925
0.09595641 -0.07316389 0.016018964 -0.047458388 -0.06437249 -0.08202615 -0.06823138 -0.015815882
0.028991794 0.061349403 -0.08101079 -0.0535914 -0.114469945 0.06036062 0.11445704 -0.058757465
-0.020244136 0.08857256 -0.038491998 -0.016754348 -0.00055733364 -0.017627025 0.012175245 -0.13459618
-0.018305423 0.059079424 -0.27591637 0.0068999035 -0.06564713 -0.10083779 0.10231298 0.033533007
0.019541241 -0.045723446 -0.027153578 0.059665237 -0.1116685 -0.033239506 0.017314117 -0.04727628
-0.043229133 -0.02279184 -0.024798542 -0.09091559 -0.0015163413 0.005567157 -0.040235844 0.0011330856
-0.10119511 0.05887035 0.013223469 -0.054191243 0.025787598 -0.0031521944 -0.080918245 -0.05441335
0.036570802 -0.0568795 -0.0625612 0.054388918 0.008143705 0.05520755 0.040660046 0.07177868
0.027887125 0.08926611 0.06450705 -0.02636906 0.02691341 -0.012828318 -0.0903388 -0.026561135
0.05091437 0.08148777 -0.0013219066 0.07898073 -0.0985736 -0.071211435 0.027633566 0.069872886
-0.11816908 0.055767443 -0.030840727 0.005401301 -0.004130878 0.09823288 -0.032861978 0.0896589
-0.092777885 -0.013658819 0.0025363793 -0.043165166 0.021821454 0.06213944 -0.052006323 0.1225489
0.07689462 -0.04490155 0.17703967 0.020476472 -0.014045953 0.07615246 0.047450833 0.12579517
0.08720523 -0.058611326 -0.07070165 -0.10952009 0.07382452 -0.065645695 0.02787482 -0.0751328
-0.050336603 0.0006062498 0.08767934 -0.007931203 -0.024140507 0.038019396 0.08696641 0.101136915
0.012899962 0.08915172 0.03254199 -0.07208522 0.07398259 -0.0138233835 0.1076573 0.049453948

layer1.bias f4 [256]
00000000: 76d2 04bd d1c2 c03d c863 613d e82a db3d
00000010: f921 1f3d c5a4 8c3c f026 e93c 38ba 82bd
00000020: 007b c53b 20fa acbd 14d0 afbd 4ab9 fdbc
00000030: 0efc babd c0cb be3d 1d04 5abd 630f c6bd
00000040: f209 e03c 60ac f0bd 04d3 5fbd d8fe 88bd
00000050: 1ec7 ab3d f88a e13d b22d ee3c b4ea 92bd
00000060: 2be9 de3d 8218 56bd f8b2 b4bd 4555 c9bc
00000070: a34e 9bbc 7e50 4dbc 7f75 5fbd 2053 7a3d
00000080: 7d5f 69bd 469b b8bd 22a8 933d d1fd 9a3d
00000090: 5ed5 55bd a7e7 bcbd 419b 70bd 9ffa 143d
000000a0: 1acd 7cbd 80a9 e8bd 28bc 5a3d e75f aa3b
000000b0: 4a8f c6bd 0cb8 8fbd 0634 1ebd 8464 b7bd
000000c0: 0c02 043e 3142 fc3d df45 8d3d e28f 55bd
000000d0: 7fcf 073c 7f65 e33d a0a2 af3d 02df c93d
000000e0: 08cb b63c 878f a33d 12ca c4bd 964a 05be
000000f0: 289e 82bc 3b84 67bd b14d 3ebd a5a1 683d
00000100: b6f6 05bd 515f 8ebd 4c60 263d f31d 15bd
00000110: c4d9 ccbb bddf 74bd 1bd5 02be e450 56bc
00000120: 93a4 a7bd caa0 ccbd 33f5 d03d cc99 c13d
00000130: 533a 20bd 49e7 e33d 31f1 87bd ea0e ac3d
00000140: 9a9a 703d 5fa9 513d aac6 b7bc edb5 04bd
00000150: f842 e6bd 5d35 f43d efaf c5bd fef8 ce3d
00000160: e230 92bd 0efb 4a3d a9a8 5d3d 1861 e2bd
00000170: 4b9d e9bb 8fa6 9a3d ea73 c9bd 3086 c1bc
00000180: b7d8 d6bc 2141 30bd adfb 8bbd 2ba5 3b3d
00000190: 5d6e f4bc dbfd b0bd 70e5 ab3d 1860 a8bd
000001a0: def1 07be 93d6 d9bd ae56 a03d f01b 9a3d
000001b0: aa98 0a3e 0dff da3d 13f6 1dbd fbb3 debd
000001c0: a649 c5bd cf25 12bd 3f27 583d 7518 fbbd
000001d0: 9482 c53d 0b91 af3d f919 89bd 949f fdbd
000001e0: 100b 40bc 929a 663c 30a9 6c3c 2351 a9bd
000001f0: 4c6c bd3d 0185 913d 58be bf3d a7af b93c
00000200: 1fd0 af3d 26a1 4abd 4abe 48bd 5a32 6ebd
00000210: 6b00 e7bd d6e9 cb3c 9dbc f7bc 4807 6cbd
00000220: 29d4 ecbd 1dd5 113d 2b01 e6bd 662d d1bc
00000230: 4c7d 7ebd e3e6 bcbd 973f 373d 8e85 4cbd
00000240: f703 8cbd 11f2 adbc 8ace b3bd 8912 083d
00000250: cbf4 9fbd e1e9 cfbd d2a1 973d 939b a8bd
00000260: 29c8 c2bd 4614 303d ba36 e43d 2d3b cbbd
00000270: 11ac edbc 7f97 cbbc 5c14 423d e255 a93c
00000280: 0127 f0bd f9bb f53c 11fb a33d e867 af3d
00000290: 39c6 893d 0039 483d 3c1b b0ba 8ec0 88bc
000002a0: fde4 c83d 7f23 abbc 3741 fe3c e93e 08be
000002b0: 6be8 83bd 87aa a9bd c8bc 08be 44e6 9cbd
000002c0: 8157 c8bc 9d63 8bbc c430 da3d edf0 2bbd
000002d0: 2e13 d0bd c0c8 8cbd a97e aa3d cf1b 1fbc
000002e0: 70de 96bd 8f61 9c3d 0cb9 0a3d f8e2 03bd
000002f0: 8e73 e4bd 7091 bdbd fd77 bebb a1d3 09bc
00000300: 9483 bc3d 0662 713d 4e7b 0f3c 4891 38bd
00000310: 456f ee3d 4c22 c63d 53ec f0bd d205 cd3b
00000320: 9634 883d e293 69bd 433e d73d 5a07 b4bc
00000330: 1348 e8bd 9fcc 17bd 3126 82bc 152d 40bc
00000340: 0909 d63b 8203 873d 43fc 723d cec8 b33d
00000350: 2899 8b3c 9415 d2bd 1805 b53d e57a 043e
00000360: 0116 ae3d e950 9b3d 7eb4 2cbc 472c 893d
00000370: 635d e43d 6dea 103c fe9a 2bbd 3422 18bd
00000380: c7ee 13bd 785e 7dbd b91e 043e f1c2 393d
00000390: 6083 d7bd bd25 eebd 3a6f 503d 3a0b 9b3d
000003a0: 3e73 cdbc 41c2 5f3d fef6 173d 68dd 45bc
000003b0: e877 d13c 3fb8 79bd 52b8 79bc 8c41 dc3d
000003c0: 47ef b03c c303 84bd cc1b 003d 768a e43d
000003d0: 79e3 b3bc 52e4 8d3d 5f3b e83d 2547 9dbc
000003e0: 2a4b 9b3d 2f88 0f3d 4ca4 21bd 4c05 f83d
000003f0: ca8f 8bbd bde4 173d 0fd6 913d eac7 393d
-0.032427274 0.09412158 0.0550268 0.10701543 0.03885076 0.017168412 0.02846095 -0.06383175
0.0060266256 -0.08446145 -0.0858461 -0.030972142 -0.09130107 0.09316206 -0.05322658 -0.096709035
0.027348492 -0.11751628 -0.0546446 -0.066892326 0.08387588 0.11012834 0.029074524 -0.07173672
0.10884317 -0.052269466 -0.08823198 -0.024576792 -0.018958395 -0.012531398 -0.054555412 0.06111443
-0.05697583 -0.09013991 0.07209803 0.07567943 -0.052205436 -0.09223872 -0.05874181 0.036371823
-0.061719038 -0.113604546 0.053402096 0.0051994207 -0.09695299 -0.07017526 -0.038623832 -0.08954719
0.12891406 0.123173125 0.068980925 -0.05213917 0.008289217 0.11103343 0.0857594 0.098569885
0.02231361 0.0798636 -0.09608854 -0.13016734 -0.015944555 -0.05652259 -0.04646081 0.05679478
-0.032705985 -0.06951774 0.04061918 -0.036405515 -0.0062515456 -0.059783686 -0.12776606 -0.013080809
-0.08185687 -0.099916056 0.10203018 0.094531626 -0.039118122 0.111280985 -0.066378005 0.08401282
0.05874119 0.051186915 -0.022433598 -0.03240006 -0.11243242 0.11924241 -0.09652697 0.10106085
-0.0713823 0.04955583 0.054115925 -0.110536754 -0.0071293465 0.075513 -0.09836562 -0.023623556
-0.026226385 -0.04303086 -0.06835113 0.045811813 -0.029837782 -0.08642169 0.08393371 -0.082214534
-0.13275859 -0.1063663 0.07829033 0.0752486 0.13534799 0.10693178 -0.038564753 -0.10874172
-0.09633188 -0.03568059 0.052771803 -0.12260524 0.096440464 0.085725866 -0.06694407 -0.12383953
-0.0117213875 0.014074938 0.014444634 -0.08267429 0.092491716 0.071054466 0.09362477 0.022666765
0.08584618 -0.04947009 -0.0490096 -0.058153488 -0.112793766 0.024891775 -0.030241305 -0.05762413
-0.11563904 0.03560363 -0.112306915 -0.025534343 -0.06213121 -0.09223726 0.04473838 -0.049932055
-0.06836694 -0.02123359 -0.087796286 0.0332208 -0.078103624 -0.10152031 0.07403912 -0.082327984
-0.09510834 0.042988084 0.11143251 -0.09923396 -0.029012712 -0.024852512 0.047382697 0.020670835
-0.117261894 0.029996859 0.080068715 0.085647404 0.06727261 0.048882484 -0.0013435851 -0.01669338
0.09809301 -0.02089095 0.031036956 -0.13305248 -0.064408146 -0.08284479 -0.13353264 -0.07661107
-0.024455788 -0.017015273 0.106538326 -0.04197781 -0.10159908 -0.068742275 0.0832494 -0.00971122
-0.07366645 0.07635795 0.03386788 -0.032198876 -0.11154853 -0.092562556 -0.0058126436 -0.008412273
0.09204784 0.058931373 0.0087574255 -0.045060426 0.11642317 0.0967451 -0.11763825 0.0062567974
0.06650655 -0.057025798 0.10509922 -0.021976162 -0.11341872 -0.037060376 -0.015887352 -0.011729498
0.006531839 0.06592466 0.059322607 0.08778535 0.017040804 -0.10258022 0.08838862 0.12937506
0.08500291 0.07583792 -0.01054108 0.06697898 0.111506246 0.008844954 -0.04189586 -0.037141994
-0.036116388 -0.06185767 0.12902345 0.045351926 -0.10523105 -0.11628292 0.050887324 0.07570501
-0.025079366 0.054628614 0.037100784 -0.012076713 0.025569871 -0.060966726 -0.015241699 0.107546896
0.021598471 -0.0644603 0.03127651 0.11159222 -0.021959053 0.06928314 0.11339449 -0.019198963
0.07582696 0.035041984 -0.039463326 0.12110385 -0.06814535 0.037083376 0.071209066 0.04535667

bn1.weight f4 [256]
00000000: 9550 803f 62cc 753f 0c53 813f 4410 803f
00000010: 7867 743f c13a 7f3f cad7 7d3f 3104 7d3f
00000020: 7c0d 6e3f 87a8 7e3f c625 893f eef4 723f
00000030: fc65 613f c75f 813f 12a8 713f 68a4 7b3f
00000040: c208 863f 7a8c 643f bef6 693f 1cca 823f
00000050: 330f 863f 9ed5 793f 1e40 853f 0e3a 6c3f
00000060: 035c 7c3f 4710 603f 2c96 713f c85a 673f
00000070: ef4b 803f e380 8b3f 0309 813f 38b4 763f
00000080: 58f7 7d3f b496 863f b2dd 843f f23c 723f
00000090: 8071 863f 0ed4 813f eae2 663f b47c 723f
000000a0: 2f21 843f d665 823f e9e0 763f c771 823f
000000b0: 1f2b 6d3f 1cad 803f 5d14 823f 375f 753f
000000c0: 0c5d 753f 2fe4 7a3f a32f 633f 7ee2 753f
000000d0: 24b6 763f 0c52 7e3f ed2b 7f3f 565e 683f
000000e0: a7d9 7b3f 4614 803f 6bd1 593f d655 753f
000000f0: 5e68 6d3f 5734 763f 5df8 853f b050 723f
00000100: 56ff 8a3f 7658 723f 29f1 7f3f ac60 773f
00000110: a188 7f3f 7cb9 753f 4409 833f 2383 853f
00000120: 5f6c 813f 494e 753f a3be 733f 4a79 783f
00000130: a060 803f bf2d 7b3f 87f8 633f 8a40 853f
00000140: 7310 7a3f 831e 783f 3aa1 723f 832b 7e3f
00000150: d933 6b3f ed4c 733f 180f 833f e64f 7e3f
00000160: b6e9 823f 143d 733f a616 843f edf3 773f
00000170: 1db0 5f3f 2fa3 6e3f 46d3 863f 488a 763f
00000180: a924 7a3f c960 7e3f 3a31 713f e011 813f
00000190: dff6 753f 6c80 823f 08ec 763f 4697 6e3f
000001a0: 91d0 843f 0cab 863f 343d 873f 366f 6d3f
000001b0: 2c91 6c3f 9c97 813f b7fe 823f ddb0 7c3f
000001c0: c8b1 6a3f 647a 7b3f 9145 6a3f 1580 6d3f
000001d0: df31 773f 953f 733f b5d1 833f b85e 6d3f
000001e0: e971 803f eb86 7a3f 113e 7d3f 5283 793f
000001f0: 5476 843f a0f5 7f3f 98bc 783f c069 6b3f
00000200: ef51 6d3f a550 7b3f f1a9 7e3f 4ebc 693f
00000210: 8834 673f cbf3 7f3f 36b7 773f 906a 7a3f
00000220: feba 6f3f cedc 6c3f 1aad 763f 6d1c 763f
00000230: c9e0 7a3f d19a 793f 5bdb 803f 0c97 7e3f
00000240: ecad 713f b6b3 803f 5f84 5d3f 9400 7d3f
00000250: 8dd7 753f e906 833f 47e8 6d3f d07b 823f
00000260: 2908 843f 6c63 7d3f d4f0 7c3f fb42 823f
00000270: d43f 743f f33a 673f 6836 863f d043 6c3f
00000280: 028c 883f dd2b 643f 0a35 803f 0da4 843f
00000290: 954c 803f a5a1 853f 102e 813f c0fc 803f
000002a0: b8ff 733f 6f3b 6e3f 3dcb 813f bdad 723f
000002b0: c051 7a3f c5e9 853f da43 6f3f b4c1 803f
000002c0: ab50 773f cb79 803f 03ae 7f3f 5efe 7b3f
000002d0: a2f1 863f 2adc 783f 02b0 7e3f 4c3c 7e3f
000002e0: b5f8 843f 69f6 7c3f c5a4 813f 8909 6c3f
000002f0: 3b46 863f 7a45 623f f915 7b3f 4adf 893f
00000300: bc03 7b3f 7835 773f 6714 7b3f 926d 823f
00000310: ab9e 833f a8e6 833f a139 623f 6ea8 7e3f
00000320: 0a82 7a3f c29e 883f bdf2 843f a20d 763f
00000330: 8ed4 823f 1d5b 813f 95f0 823f 62ed 6b3f
00000340: 4dc7 803f fcee 7a3f 7522 763f 26d7 823f
00000350: 6bc6 7a3f 292a 6b3f 7a1a 663f b681 843f
00000360: ef63 753f 366f 813f 55a0 733f 055e 7f3f
00000370: 42ae 7c3f fa29 643f 4b37 863f a1b4 793f
00000380: 3a0f 823f 07d8 703f 4de6 713f 3c14 773f
00000390: 7945 5f3f 5b6a 7f3f 10d1 683f d469 843f
000003a0: d11d 833f a8e8 733f 72f8 783f a21c 863f
000003b0: 19d4 6f3f 07e4 723f 4aeb 673f 526e 793f
000003c0: b8bf 833f cf93 7e3f d8c1 7c3f 141c 6f3f
000003d0: ac59 713f 56b5 853f c7f0 7d3f f623 803f
000003e0: 57a8 7f3f 90db 7e3f 83b5 793f aa9c 803f
000003f0: 4b95 823f 7922 793f 2705 863f e8e5 693f
1.0024592 0.9601499 1.0103469 1.0004964 0.9547038 0.99699026 0.9915739 0.9883452
0.92989326 0.994759 1.0714653 0.94904983 0.8804624 1.0107354 0.9439708 0.9829774
1.0471423 0.8927685 0.91392124 1.0217929 1.0473388 0.9759158 1.0410192 0.92276084
0.985779 0.8752484 0.9436977 0.90372896 1.0023173 1.0898708 1.0080875 0.9636874
0.9920554 1.0514741 1.0380156 0.94624245 1.0503387 1.0142839 0.90189993 0.9472153
1.0322627 1.0187328 0.96436936 1.0190972 0.9264392 1.0052829 1.0162464 0.9584841
0.95845103 0.9800443 0.8874456 0.96048725 0.96371675 0.99343944 0.996764 0.90768945
0.98378986 1.0006187 0.8508517 0.958341 0.92737377 0.96173614 1.046642 0.9465437
1.0859172 0.9466623 0.99977356 0.96631885 0.99817854 0.9598615 1.0237203 1.0430645
1.0111197 0.9582258 0.95212764 0.9706007 1.0029488 0.9811668 0.890511 1.0410321
0.9768135 0.9692156 0.9477726 0.99285144 0.9187599 0.95039254 1.0238981 0.99340665
1.0227573 0.9501507 1.0319412 0.96856576 0.873781 0.9321775 1.0533226 0.9630475
0.9771219 0.9936643 0.9421574 1.008358 0.9607982 1.0195441 0.96453905 0.93199575
1.037615 1.0520949 1.0565553 0.9274782 0.92409015 1.0124393 1.0233983 0.9870737
0.9167752 0.9823363 0.915124 0.9277356 0.9656047 0.95018893 1.0298373 0.92722654
1.0034763 0.9786212 0.9892283 0.97466004 1.0348611 0.9998417 0.9716277 0.91958237
0.92703146 0.9816993 0.9947806 0.91302955 0.9031453 0.99981374 0.9676393 0.9781885
0.936447 0.9252442 0.9635788 0.96137124 0.97999245 0.97501856 1.0066942 0.9944923
0.9440601 1.0054843 0.8653011 0.9882901 0.9603203 1.0236484 0.9293255 1.0194035
1.031499 0.9897983 0.98804975 1.0176691 0.95409894 0.90324324 1.0485353 0.92290974
1.0667727 0.8912943 1.0016186 1.0362564 1.0023371 1.0439955 1.0092182 1.0077133
0.9531207 0.9305944 1.0140148 0.94796354 0.9778099 1.0461966 0.9346291 1.0059114
0.96607465 1.0037168 0.99874896 0.9843501 1.054249 0.97210944 0.99487317 0.99310756
1.0388399 0.9881349 1.0128409 0.9220205 1.0490183 0.8838726 0.980804 1.0771267
0.98052573 0.9656596 0.98078007 1.0189688 1.0282797 1.0304766 0.88369185 0.99475753
0.97854674 1.0673449 1.0386578 0.9611455 1.0221117 1.010593 1.022967 0.9215909
1.0060822 0.9802091 0.9614633 1.0221908 0.9795901 0.91861206 0.8988415 1.0352085
0.9585561 1.0112064 0.9516652 0.9975284 0.98703396 0.8912655 1.0485624 0.9754124
1.0160897 0.9407963 0.94492036 0.9651525 0.8721538 0.9977166 0.90944004 1.0344796
1.0243474 0.9527688 0.972541 1.0477488 0.9368301 0.9487919 0.905934 0.9743396
1.0292883 0.9944429 0.9873328 0.9340222 0.94277453 1.0445964 0.9919552 1.0010974
0.9986624 0.99553776 0.9754259 1.004781 1.0201811 0.97318226 1.0470322 0.91366434

bn1.bias f4 [256]
00000000: 68f9 0ebe d624 78bd 5285 cabd 9c68 22be
00000010: e041 3abe 4e31 cebd bb5a b7bc 0993 9dbd
00000020: 37fa fbbd 5b04 56bd 7859 6cbe d659 f1bd
00000030: e7e0 c7bd fe51 65be 9c1d 02bd 2af4 50bd
00000040: f867 d3bd 49fd 12be 8662 ddbd 06b5 8cbe
00000050: efa9 8cbd ac0b d1bd c963 3fbd 45d5 63be
00000060: c3d3 9abc b7d1 e3bd 4fda c0bd e213 fdbd
00000070: ec2a acbd 0853 94be 9c7e 02be 8162 d3bc
00000080: 8b32 fabd b39c 91bd 4c27 d8bb 1eda 8dbc
00000090: 8752 49be 76c0 d8bc 9403 b0bd 6778 24bd
000000a0: d741 7ebe d17c 0cbe 18a0 f9bd 92df 4dbe
000000b0: 9046 f9bd a717 68be 9227 20be 1b74 bebd
000000c0: 1ea7 08be 4cfa 25be a9d2 29be ff31 fabd
000000d0: fae5 b2bd 3708 30be 6b65 9abc 3d60 a9bd
000000e0: 65d1 9bbd afcc 92bd 41d9 debd 63fd f1bd
000000f0: 7e17 28be 079e 87bd ca99 31be 2d66 c5bb
00000100: 055f 4bbe 0e42 00be 6756 08be b0ca 21be
00000110: d5c8 68be b7d7 a6bd b2da c8bd 9e9f 8ebe
00000120: bbb4 15be e345 c9bd e71e 97bd 13e6 6a3c
00000130: cc58 74bd c0e3 93bd f9ea e1bd db06 013d
00000140: 660b 0abe b800 7bbd defe e3bc 5476 3cbc
00000150: 77b0 c7bd 0cfd 9bbd c781 f63b 7628 d4bd
00000160: 0a08 52be 758e 13be a0c6 73bd 01ab c0bd
00000170: 59dd 3cbe ae06 e4bd 5082 41be c513 5bbd
00000180: 0e07 3dbe f6f3 36be 5873 f4bd 2eb5 27be
00000190: 897c 93bd 5962 14bd d9d8 0cbe 8afe 65bd
000001a0: 10f4 26be 5412 d4bd b992 67be 967b c5bd
000001b0: e5e0 fcbd a854 46bd b77f 3bbe e31e 0bbe
000001c0: 6d03 a3bd 221e dabd 5347 57be 2a0d 1cbe
000001d0: 7ddc b0bc ac7d 08be 2eb6 71be 1b17 68bd
000001e0: 5015 6dbd b7e0 cdbc b5a0 1bbe 7928 03bd
000001f0: ad68 53be e715 b9bd 37af 50bd 65c7 3abe
00000200: 32d5 0fbe 9ac9 f8bd ee01 8abd 472c 14be
00000210: d63f d5bd 477a 9cbd a4c8 05be 094e 52be
00000220: 4267 91bd 502e 12bd 8d0f 4bbe 7dec dfbd
00000230: 733c e7bd 595f 4ebd 1b74 dcbc 9cf4 0bbe
00000240: d7ea ecbd aef4 05bd 1b70 2cbe 47cc 0abe
00000250: 87c0 3dbe 8185 ddbd 3c0a 76bd c385 babc
00000260: 3f14 09be 7f08 80bd 99c6 38be e26f 52be
00000270: 7ca2 8dbd 002c b4bd 2353 26be fc65 03be
00000280: 15e2 78be 66b6 18be 88ed 1ebd f3e4 8fbe
00000290: 91ec 29be d247 86be e5ec 873d 686b 0ebe
000002a0: f356 b5bd 2bb4 b5bc f2e2 c2bd dac2 abbd
000002b0: 57b7 173a 5f4e 4b3c 3258 d9bd 956f 153c
000002c0: 2c51 4bbd 9cbe 97bd ed9b 70bd 506a c9bd
000002d0: b24c 74be 12d6 9ebd b3ce 65be 38cb adbd
000002e0: 5af1 72bd f302 5a3a b416 12bd 50a3 e9bd
000002f0: 7df5 da3c a54c d5bd 0f65 ecbd dcac 79bd
00000300: 4f95 29be 5192 b9bd 8a11 83be 93e7 62bd
00000310: 4f5a 2bbe f48f 65be 446b e1bd 2376 0ebe
00000320: 7c28 8cbd 607f 8abe 7882 7dbe 36cf efbd
00000330: b867 63bd a547 30be 636b 24be 06d2 88bd
00000340: cd09 a6bd aa45 eebd 67e4 6abd f0fe e3bc
00000350: f971 30bd 13a7 a8bd c1b0 0cbe acd6 623a
00000360: fc21 99bd 6920 23be f9ec 6ebd aaf7 1dbe
00000370: cb06 8dba 401f e7bd e92f 12bd 9a4d 4cbe
00000380: c01a 67be 7cb9 09be 317c 0ebe 3086 c7bc
00000390: e67c f2bd f1c5 49be 3ce8 83bd 518b 13be
000003a0: 2eae 14be 2289 3bbd 2077 fcbc bd67 f93b
000003b0: 688d 74bc c227 9abd 48d4 e9bc 633a 9bbd
000003c0: 4eae b5bc a67e 42be 20e2 6abe 4e48 fabd
000003d0: 8890 45be b466 92bd 3c72 cebc d6b8 24be
000003e0: 5f6d 5abd 41ff 3abd d403 87bd 6cb7 19bd
000003f0: df0f 10be a2db 86bd 2717 94be a9ff 1abe
-0.13962328 -0.060582004 -0.0988871 -0.15860218 -0.18189192 -0.10067998 -0.02238213 -0.0769406
-0.12303584 -0.052250247 -0.23081005 -0.11784713 -0.097596936 -0.22394559 -0.03176652 -0.051014103
-0.10322565 -0.14354433 -0.108098075 -0.2748186 -0.0686835 -0.10207304 -0.046726022 -0.22249325
-0.018899804 -0.11123984 -0.09416639 -0.12357308 -0.08406624 -0.28969598 -0.1274361 -0.025803806
-0.122166716 -0.07109966 -0.0065964814 -0.01731592 -0.19660388 -0.02645896 -0.085944325 -0.040153887
-0.24829803 -0.13719489 -0.121887386 -0.20104817 -0.12171662 -0.22665273 -0.15640095 -0.09299489
-0.13345 -0.16208762 -0.16584267 -0.12216567 -0.08735271 -0.17190634 -0.018847188 -0.08270309
-0.07608298 -0.071679465 -0.10881282 -0.11815908 -0.16415212 -0.06621938 -0.17343822 -0.006024143
-0.19860466 -0.12525198 -0.1331421 -0.15799975 -0.22732861 -0.08146613 -0.09807338 -0.27856153
-0.14619724 -0.09827783 -0.07378941 0.0143370805 -0.059654996 -0.07221174 -0.110311456 0.03150068
-0.1348091 -0.061279982 -0.027831491 -0.011502821 -0.09750455 -0.07616624 0.007522795 -0.1035928
-0.20510879 -0.14409812 -0.059515595 -0.094076164 -0.18443812 -0.111340865 -0.18897367 -0.05348565
-0.18459722 -0.17866501 -0.119360626 -0.16377708 -0.072014876 -0.036226604 -0.13754596 -0.05615095
-0.1630404 -0.10355058 -0.22614564 -0.09642713 -0.12347583 -0.04842058 -0.18310438 -0.13586001
-0.07959638 -0.10650279 -0.21023302 -0.15239397 -0.021589512 -0.1332919 -0.23604652 -0.05666266
-0.057881653 -0.025131566 -0.15198024 -0.03202102 -0.206454 -0.09037381 -0.050948348 -0.18240125
-0.14046171 -0.121478274 -0.06738649 -0.14470015 -0.10412566 -0.0764051 -0.1306482 -0.2053758
-0.07099773 -0.0356887 -0.19830151 -0.109337784 -0.11290827 -0.0503839 -0.026910832 -0.1366753
-0.1156823 -0.032704048 -0.1683964 -0.13554488 -0.18530475 -0.108164795 -0.060068354 -0.02276886
-0.1338663 -0.062516205 -0.18044509 -0.20550492 -0.06915757 -0.08797455 -0.16242652 -0.12831873
-0.24304993 -0.1491333 -0.038800746 -0.28104362 -0.16594149 -0.2622667 0.06636981 -0.1390816
-0.08854475 -0.022180637 -0.09515943 -0.08386774 0.00057875126 0.012408822 -0.10612525 0.0091208415
-0.04963796 -0.07409403 -0.058742452 -0.098347306 -0.23857382 -0.077556744 -0.2244213 -0.084860265
-0.059312202 0.00083164795 -0.035666183 -0.114081025 0.026728386 -0.104150094 -0.11542713 -0.060955867
-0.16560863 -0.09061111 -0.2559932 -0.055396628 -0.16733669 -0.22418195 -0.110067874 -0.13912253
-0.06843659 -0.27050304 -0.24756801 -0.11709444 -0.055518836 -0.1721483 -0.1605659 -0.06680684
-0.08107338 -0.11634381 -0.057346728 -0.027831525 -0.043077443 -0.08234992 -0.13739301 0.00086532044
-0.07477185 -0.15930332 -0.058331463 -0.15426508 -0.0010759471 -0.11285257 -0.035690222 -0.19951478
-0.22568798 -0.13449663 -0.13914563 -0.024355978 -0.11840229 -0.19704415 -0.064407796 -0.14408614
-0.1451957 -0.045785077 -0.030818522 0.0076112435 -0.014926292 -0.075271145 -0.028543606 -0.07579496
-0.022177842 -0.18993625 -0.22937822 -0.12220822 -0.19293416 -0.07148495 -0.025200956 -0.16086134
-0.05332696 -0.045653585 -0.06592527 -0.03752844 -0.14068554 -0.065848604 -0.28923914 -0.15136589

bn1.running_mean f4 [256]
00000000: c6dc 7dbc a075 413e b824 443d eb94 1c3e
00000010: fc4b 233d ff78 123e d1eb 0dbe 97c2 28bd
00000020: d408 03be c0d6 f0bd f457 c3bc d49d 8e3c
00000030: 5cf1 13be 9ba3 953e b497 00bd 25fa ffbd
00000040: 7617 793d 3444 c2bd dcfb c8bd 00cf 003d
00000050: 3a69 993d 5f2a 2c3e e81e c33d 6db9 473e
00000060: 443d 053e c446 0abe 9d20 8abd a203 5dbc
00000070: cf28 643e 1243 b53d 649b 223c eade 45bc
00000080: 4383 143e 3ba6 0abd 0ca8 273c 339b 333c
00000090: 8c64 593e ed06 2e3d 3205 35be 720a 153e
000000a0: 1048 c03d 447f 263d 3fe1 b73d a3d7 6f3e
000000b0: 0759 4f3c 9b6a 1c3e 0b2c 90bd 8b5f 1dbe
000000c0: fc4b 883e 2c62 913e 0e15 f93d 043d d43d
000000d0: ff8c 0d3d 39dd 8d3e 5cdb 433e e04f b73e
000000e0: 3e09 f6bc e65a 3e3e d5f8 11bd 5f1a 23bd
000000f0: a2da 3a3e eed9 1fbe eca8 3c3e c517 debd
00000100: 6d33 193e 9013 67ba efad 943d e693 8a3d
00000110: 74ae 2d3e f95d 26be 1eeb d3bd 6ee3 a43d
00000120: 4d27 0cbd 0f1b 803d 9832 1d3e b7fb 173d
00000130: 8e91 b9bd 10ba 963e 9e55 9fbd 51a4 1abe
00000140: 4d0a 39bd 62fc b83c 1748 24bc 0a73 dbbd
00000150: 0a23 6ebe 3249 2dbd b985 6fbc 225c ff3d
00000160: e66e 253c 399c 803e e642 993e 1447 b9be
00000170: 4582 8bbd 6cac 233d c3ab 8f3d 89f1 3fbe
00000180: 7885 833b 1636 813d abd2 7f3d 9e46 fd3d
00000190: 36f6 cf3c 0ec6 e83c 40f8 393e 3732 97be
000001a0: 47ef 1d3d d004 b1bd 4514 bf3d 2e8d 073e
000001b0: 7423 cc3d b975 243e 9a9b 943d d527 18be
000001c0: 86c9 923c 01f8 40be d6e5 353e cdbf f7bc
000001d0: 773f 90bd 5b4e 583e 86ed 3b3e 1383 40be
000001e0: fc14 1bbe 4bd5 cebd af34 093e 647a 7bbe
000001f0: f376 e53d a3ad b03e 486b 183e eb68 f53d
00000200: 1dee a63e 4537 863d e38c 97bd 25ad b6bc
00000210: 0d0f cdbe 0558 e03d 1189 c23c b1b5 b83d
00000220: 5ee4 35be 8368 c4bd bc57 cbbc 6508 aebd
00000230: ab17 4c3d 002b 00bd 6cfe 37bd 0233 9ebc
00000240: 12ed 1bbd 75a9 e2bd 69a1 70bc e253 b33d
00000250: de4e 363e 1029 bc3b 93f0 b83c 9002 edbd
00000260: 5042 b7bb ce6b 6bbc 154e 3c3e e147 a73d
00000270: e906 c23d 7c41 ebbc fe35 6c3e fa8f 243e
00000280: 504d f33d 5dfc 45bd e611 733d 23ac 613e
00000290: f417 763e 5e03 293e 70d2 ebbd 1c4c 5e3e
000002a0: 25b4 463e 1175 0bbe 87a5 1a3e cacb 4ebe
000002b0: c350 75bd 8325 75be 6e5f d0bd a067 3fbd
000002c0: 5d99 b3bd 5260 733d 59c1 dabb 6ef8 af3b
000002d0: 8f29 033d 22a3 c83c f5d5 043e 6bce f83c
000002e0: 09be 3e3d bca1 143d e573 1ebd 7014 85be
000002f0: aaf2 1dbe 9c61 203c 9843 243e 0145 1f3e
00000300: 37ea 943e ffbb c53d 4a2f b23d 3252 30bc
00000310: 3e43 183e 1590 2a3e 0838 993d 0ab9 8dbd
00000320: 0d13 533e 52c5 393d 4f1c 8e3e d5fc 133e
00000330: 4687 21be 5648 92bd 7a7a de3d d939 d03d
00000340: 35ff 853e a0fe 143e 679b b73d aa22 11bd
00000350: 8776 333e d0d6 2abd 5c37 403e b909 363e
00000360: 4067 b43d e8f7 223e e0ff ee3d 41da 0a3e
00000370: 3682 ccbd 7c2c 05be 06bf cc3d 6444 8e3d
00000380: 0403 943d 5030 b23d 19f1 1d3e 7539 083e
00000390: 9233 bd3d 2662 ab3c 1b07 1abe 4d84 793e
000003a0: 033a 183e 6179 7abd d945 02bd 90cc cebd
000003b0: cceb 803c 9a44 52be e4bc c3bd 2758 8f3d
000003c0: c55c e23d 7a2a b1bc 9abb 353e f396 fc3d
000003d0: 4d0a a73d 846b 593e 5773 993e b8e8 103e
000003e0: 1c82 233e b174 6c3d ee12 86bd 4fab 753e
000003f0: 1a81 86bb 76a1 d3bc 86ee 803e d268 de3d
-0.015494531 0.18892527 0.04788658 0.15291183 0.039867386 0.14303969 -0.13859488 -0.0412012
-0.12796336 -0.1175971 -0.02384565 0.017409243 -0.1444754 0.29226384 -0.031394675 -0.12498883
0.06081339 -0.09485665 -0.09813663 0.03144741 0.074907735 0.16813038 0.09527379 0.19504328
0.13011652 -0.13503557 -0.06744502 -0.013489636 0.22281192 0.08850683 0.009924743 -0.012077073
0.14503197 -0.033849936 0.010232937 0.010962295 0.21229762 0.042487074 -0.17677763 0.14554766
0.09388745 0.040648714 0.08978509 0.23422103 0.012655503 0.15275042 -0.070396505 -0.15368478
0.2662047 0.28395212 0.12162219 0.103632 0.034558292 0.27707842 0.19126648 0.35803127
-0.030033704 0.18589363 -0.035637695 -0.03982007 0.18247464 -0.15610477 0.18423814 -0.108443774
0.14961024 -0.0008814866 0.07259738 0.06766491 0.1696108 -0.16246785 -0.103475794 0.08051191
-0.034217168 0.06255161 0.15351331 0.03710529 -0.090609655 0.2943883 -0.07780002 -0.15101744
-0.04517584 0.022581283 -0.010026953 -0.10715301 -0.23255554 -0.042306133 -0.014619284 0.12468745
0.010097241 0.25119188 0.29933852 -0.3618704 -0.06811956 0.039959356 0.07015183 -0.18744482
0.0040137134 0.06309144 0.062456768 0.12366985 0.025385957 0.028414752 0.18161106 -0.29530498
0.03855827 -0.08643496 0.09330038 0.1323745 0.099677 0.16060533 0.07256241 -0.14858945
0.01791836 -0.18844606 0.17763457 -0.030242825 -0.07043355 0.2112364 0.18352327 -0.18800001
-0.15144724 -0.10099276 0.13399003 -0.24558407 0.112043284 0.34507474 0.14884675 0.11982902
0.3260354 0.065535106 -0.07399919 -0.022299359 -0.40050545 0.109542884 0.023746999 0.0901903
-0.17762896 -0.095902465 -0.024822108 -0.08497695 0.04982726 -0.031291008 -0.04492037 -0.019311432
-0.038067885 -0.110674776 -0.014686921 0.08756234 0.17803523 0.0057421997 0.022575652 -0.115727544
-0.005592622 -0.014368964 0.18389161 0.08168007 0.09473974 -0.028717749 0.23067471 0.16070548
0.118799806 -0.048336376 0.05934324 0.22038321 0.24032575 0.1650519 -0.11514747 0.21708721
0.19404657 -0.13618876 0.15102206 -0.20194927 -0.059891474 -0.23940091 -0.10174452 -0.046729684
-0.08769486 0.05941803 -0.006675881 0.0053701913 0.032022055 0.02449185 0.12972243 0.030371865
0.04656795 0.036287054 -0.038684744 -0.25992155 -0.154246 0.009788897 0.1604141 0.15553667
0.29084942 0.09654998 0.08700426 -0.010761784 0.14869401 0.16656525 0.0748139 -0.06920059
0.20612736 0.045354195 0.27755973 0.14451917 -0.15774259 -0.07142703 0.10863204 0.101672836
0.2617127 0.14550257 0.089651875 -0.03543345 0.17525683 -0.041708767 0.18771118 0.17777146
0.08808756 0.15914881 0.11669898 0.1355982 -0.09985773 -0.1300525 0.09997372 0.06946638
0.07227138 0.08700621 0.15424003 0.13303168 0.09238352 0.020920824 -0.15041773 0.24366875
0.1486588 -0.061150912 -0.031804893 -0.10097611 0.015737437 -0.20533982 -0.095575124 0.069992356
0.11052851 -0.0216267 0.17747346 0.12333479 0.081562616 0.2123242 0.2997081 0.14151275
0.15967602 0.057728473 -0.06546579 0.2399113 -0.0041047456 -0.025833827 0.2518198 0.10859837

bn1.running_var f4 [256]
00000000: f987 3b3d 8633 e93c dadd 793d 1eb7 213d
00000010: 8fc5 1c3d f595 653d 1e1c 863d b34d 543d
00000020: 4b1e 703d 490b 163d 96c9 983d 6985 513d
00000030: 2bf7 013d 8310 353d b162 123d ba5a 823d
00000040: 07a3 613d 7e3b 903d 5854 273d 94d5 643d
00000050: f5e1 733d c155 2b3d bf06 8c3d f571 463d
00000060: c90e a73c c277 1a3d 9efa 6c3d 3c67 423d
00000070: f5cc 353d d326 403d 9a93 933d 07b8 233d
00000080: 9856 8a3d bf5b 423d 9d48 633d 6292 203d
00000090: 2ca1 663d 727b a63d 9765 463d ed15 2b3d
000000a0: 999a 2d3d 0455 b63d 75bd 3a3d c844 3e3d
000000b0: bb39 223d 0e9c 613d eb89 873d b690 3b3d
000000c0: 5c03 813d 551d 463d d95d 403d 6586 573d
000000d0: 48da 6e3d 6627 2f3d 2d47 0d3d 8a54 733d
000000e0: d6f7 3d3d 69b4 1a3d d2af 073d c2b9 843d
000000f0: 3292 9d3d 9319 dc3c 3ead 273d 7063 103d
00000100: d2f9 3d3d 6b4d 103d f4e7 7d3d b318 3c3d
00000110: 33df 913d 1920 603d 2a8b 7d3d 52d7 123d
00000120: 6ba0 093d a6dc 2a3d 72dc 103d 4aa1 fa3c
00000130: 8bb5 8a3d c5e2 4d3d 3188 f13c 07c8 273d
00000140: 18a0 093d e2f0 393d cdd3 123d f3b7 3e3d
00000150: de29 343d 480b 0a3d b198 b53c de97 1e3d
00000160: 14ed 183d 13cb 313d c3c9 c13d 4ce1 193d
00000170: 9f1b 223d bfe3 8e3d cd03 8e3d e8e1 db3c
00000180: 16c0 503d ca24 423d 3ff7 633d 2b14 5e3d
00000190: 233d 753d afd2 723d f53e 263d 92db 0d3d
000001a0: dc25 303d 7740 803d 8ac0 843d 3a2b 663d
000001b0: a82f e93c c420 8c3d 4a9d 8a3d 87ed 1f3d
000001c0: 0345 553d 6f6e 2d3d 3901 273d 44a8 3f3d
000001d0: ad90 fe3c 03da 803d 44af 623d 900d 133d
000001e0: 091b f53c 8783 083d b48f 383d 0446 113d
000001f0: 7efb 1e3d 22f2 2b3d d04d af3c ebc0 2f3d
00000200: af52 473d 2e93 853d 9914 073d 6007 333d
00000210: f536 da3c 8d2f 853d bc3f 953d c26c bd3d
00000220: b20e 0a3d b7de 223d f8bf 333d 2e21 4d3d
00000230: dd85 3d3d 75b0 1e3d 1738 3e3d e12a 383d
00000240: 480e 113d 03e8 1f3d f35e 563d 8aa3 313d
00000250: 8ec0 323d 3667 463d a2cd 0c3d 0bb0 7e3d
00000260: 9add be3d e0ff 483d 26be 7d3d ed5f 043d
00000270: 6e75 cc3c 9dfe be3c 3bc6 283d 7ccd 973d
00000280: 098d fd3c 462f 563d 54fd ba3d 93e8 673d
00000290: a501 0b3d dcf6 6c3d 8f73 153d 23b6 8e3d
000002a0: 382c 513d 0983 623d e309 5d3d 2bb7 3e3d
000002b0: 6b11 103d 6c51 f13c 17fc 353d 23f1 933c
000002c0: 44ce 143d 9340 2c3d a95e 533d f916 533d
000002d0: a5ed 3d3d 550d 5a3d 6038 263d 553c 3c3d
000002e0: b882 393d c6e3 1c3d 177f a33d de99 e13c
000002f0: 6104 e53c 2684 463d 97f2 2d3d 2b1e cb3d
00000300: bece 3e3d d09f 6a3d 235c 1e3d 8ac3 883d
00000310: c093 9a3d a3af 293d b089 273d 86cb 393d
00000320: 8d6d 173d 1cd8 093d b9f2 203d 23fc 923d
00000330: 098a 8d3d 1016 793d bfd1 213d efd6 213d
00000340: 62dd ba3d 6906 b33d 3d47 5a3d a35f 173d
00000350: 0c42 3b3d 7e42 f13c 63e5 453d d0ad c53c
00000360: c545 343d f8bf 103e c72f 953d 0de4 143d
00000370: 832c 293d bc94 353d 2268 843d cc49 733d
00000380: 149b 263d 72cc 373d 3037 5f3d de94 063d
00000390: 3bb8 d93c afa3 d83d 18d4 f93c f03e 2d3d
000003a0: eae7 763d fbf4 3b3d 03ac 233d 1788 573d
000003b0: 6977 0f3d 41d5 203d e8d3 813d 8fd8 403d
000003c0: 4fce fe3c 9b4d 3a3d afc9 6b3d 73da 0e3d
000003d0: c4bd 983d c4fd c63d c369 b53d b8c7 0a3d
000003e0: b0e8 803d f49f 923d b3a7 573d 2d1b a23d
000003f0: 775e 553d 4ec2 013d 73e7 333d 64a0 823d
0.04578397 0.028466951 0.06100259 0.039481275 0.038274344 0.056051213 0.06548332 0.051831912
0.05862264 0.036631856 0.074603245 0.05115262 0.03172986 0.0442052 0.03573865 0.06364961
0.055087116 0.07042597 0.04085192 0.055867746 0.05954166 0.04182983 0.06837224 0.04844852
0.020392792 0.037711866 0.057856195 0.047461733 0.044384915 0.046912026 0.07205887 0.039970424
0.06754798 0.047450777 0.05548917 0.0392021 0.05630605 0.08129014 0.048436727 0.041768957
0.042383764 0.08902934 0.045590837 0.046452314 0.039605837 0.055080466 0.06618103 0.045792304
0.06299469 0.048367817 0.0469645 0.052618403 0.058313638 0.042762183 0.034491707 0.059406795
0.046378933 0.03776971 0.03312666 0.06480743 0.076939 0.026867663 0.0409367 0.03525108
0.046380825 0.03523008 0.061988786 0.045921993 0.0712265 0.05471811 0.061900295 0.035849877
0.033600252 0.041714333 0.035366483 0.030594487 0.06772908 0.050265092 0.029483886 0.040962245
0.033599943 0.04539574 0.03584652 0.046562146 0.04398524 0.033702165 0.022167535 0.03871905
0.03733547 0.043406557 0.09462311 0.037568375 0.039577123 0.06977033 0.06934319 0.026841119
0.050964437 0.047398366 0.055655714 0.054218452 0.059872758 0.059282955 0.040587384 0.034633227
0.043004856 0.06262296 0.064820364 0.056193568 0.028465107 0.06842187 0.06768282 0.039044883
0.052067768 0.042341646 0.04077265 0.04679133 0.031074846 0.062915824 0.055342928 0.035901606
0.029920118 0.03332856 0.04505892 0.035467163 0.03881406 0.041978963 0.021399409 0.04290859
0.048662838 0.06522213 0.032978628 0.043708205 0.026637534 0.0650321 0.07287547 0.092492595
0.03370542 0.03976318 0.043884248 0.05008047 0.04627024 0.0387425 0.04644021 0.044962768
0.03541401 0.039039623 0.052336644 0.043368854 0.043640666 0.048438273 0.034375794 0.062179606
0.09319611 0.049072146 0.061948918 0.032318044 0.024958339 0.023314768 0.041204672 0.0741224
0.03095104 0.052291177 0.0913035 0.056618284 0.033937115 0.05785261 0.03648716 0.069683336
0.05106756 0.055300746 0.053964507 0.0465614 0.03517286 0.02945777 0.044429865 0.018059319
0.036329523 0.04205377 0.051603947 0.05153558 0.046369214 0.05323537 0.040581107 0.045955975
0.04529068 0.03830316 0.07983225 0.02753919 0.02795619 0.04846587 0.04246768 0.099178635
0.046583883 0.057281315 0.038662087 0.06677921 0.07547712 0.041427266 0.040902793 0.04536011
0.03696971 0.033653364 0.03929398 0.071769975 0.06911094 0.060812056 0.03950667 0.039511617
0.09124257 0.08741457 0.053290594 0.03695644 0.045717284 0.029450651 0.048314463 0.024130732
0.04401185 0.1413573 0.072845034 0.0363503 0.041302215 0.044331297 0.06465174 0.05939655
0.040675238 0.04487271 0.05449599 0.032856815 0.026577106 0.10578095 0.030496642 0.04229635
0.060279764 0.04588793 0.039958965 0.05262002 0.035025988 0.039265875 0.06339246 0.047081526
0.031104235 0.045484167 0.057565387 0.0348763 0.0745807 0.09716371 0.08858063 0.033881873
0.062943816 0.07159415 0.052650165 0.079153396 0.05209204 0.031679444 0.0439219 0.06378248

layer2.weight f4 [128, 256]
00000000: 6add fd3c f05f 663d 5119 bcbc 947b 003d
00000010: 3dc2 db3c 853a 0e3d ad01 3c3d b24f 0abd
00000020: cee5 e73c a592 5b3d 1699 1e3c c097 7839
00000030: b5b1 863d 75e9 fd3c b7a8 c4bc c4e0 fcbd
00000040: cfa9 83bc f0dc 1abd fc1b 63bc ceb3 f63c
00000050: d8ca 443d 3ab4 dbbc 2798 fbbd 177f 80bc
00000060: 041a 593d 05ae 003d de29 273d 232e aabc
00000070: 2c63 5fbc 68a9 21bd e667 513d 604a 81bc
00000080: e89e 883d 147a 073d fbf8 96bd ad06 fd3c
00000090: d4b3 993c 5e46 bb3c 9bb5 4d3d 98a7 bfbc
000000a0: 40c3 83bd fab4 a9bc 589f 833b 7917 253d
000000b0: 4899 cc3b 6c5b f7bb 9250 323c a9e5 8d3d
000000c0: 6d12 8abc 6fec 283c 15eb d33c d8a5 05bd
000000d0: cf44 25bd bab0 a5bc 87ed 5c3d cd4a 86bc
000000e0: 45c3 69bc 4922 523d 6791 423c 50e4 863c
000000f0: e964 36bc 9dbe 45bd 0b8b 1d3d 7afa fb3b
00000100: 0fb7 4d3d 0401 733c fc69 e5bb fa14 b13c
00000110: f29c eabc abc8 8f3b df52 7a3d 0ac0 ab3b
00000120: 3b37 823d 7e9b 2ebd caa6 2f3d 678d 88bc
00000130: 5f9a 023d 9695 c0bd eb01 cc3b 7ec8 533d
00000140: 1041 b03d 410e cbbb 1d8b 9b3d 08e9 8b3d
00000150: 247b 86bc 9643 b53d 54b2 b23d 85f3 c43d
00000160: b5a0 88bb d3dd b0bc afc4 6a3d 5c7d 093c
00000170: c65d 003d 5114 ebbb 26b2 103d 7e18 31bd
00000180: 89d2 e73b 519b 833b 0a5b 933d 3f18 b13b
00000190: 9501 3f3d 7fa6 e03a bfcd 303d 7ea2 9b3c
000001a0: 7cf7 6a3d 112c a63d 7236 1dbc d0e8 283c
000001b0: 77bc f0bc 6d5d 9aba c978 063d 460f 0abd
000001c0: bf27 b63c bffb 233c 5ce8 9dbc f7bb e4bc
000001d0: 6eaf 933d 2247 c3bd 2e73 133d 0d6e 03bd
000001e0: 391a 383d 515d 803d 948a acb9 dd49 833d
000001f0: 75b0 c53d de3d 183d 7c51 92bd 68e0 b93b
00000200: 3d7c 9c3c 07f2 5fbd 7386 48bd e6d1 b33b
00000210: 6e84 873c 2781 babd 332e 40bb 1c95 b9bc
00000220: 5c3f a1bc eccd 35bd 8456 333c 10b6 acbc
00000230: f366 723d 2d9f bfbc b9a6 813d efff 62bc
00000240: 270c 783d 8818 ba3d 69c9 e7bc 1dc9 3d3c
00000250: 27b2 1f3d c971 6fbd e98b e6bc 9500 f83b
00000260: eee6 e83a 13f9 0dbd f370 133d bfcd 843c
00000270: b47d faba e07c 0bbd 0bf6 4a3c 1944 58bc
00000280: 48b9 c63b 414a ac3c 6add 933d e39c 1ebd
00000290: d2c2 793d 1a25 e03c 810f 9abc 9822 79bd
000002a0: e61c b8bb 7ab8 3dbd 2f59 28bd e4c8 fabc
000002b0: 91d2 9fbc 932a 73bb 7cd6 583b 4fe2 693d
000002c0: 2675 8bbc 6182 ecbc a5a6 873d 8390 bf3c
000002d0: 3a3b 7a3d 5736 20bd fd97 823d 8acf c73c
000002e0: 8a12 aa3d 8ec1 9f3d e988 90bd 05ea 9c3d
000002f0: a384 753d eb75 5f3c 26d6 313c d16d df3c
00000300: 132c 883c c516 90bd 3a0b 4b3c c374 cabc
00000310: 4244 4b3d 6085 8e3d 9d37 80bd 0d4f 433d
00000320: b7e1 0ebd 9870 483d 4717 ab3d cbf6 1dbc
00000330: 506e 883b 9c6c e93c cbef 72bb fa64 b53b
00000340: b544 0dbd 18f5 3cbd 63fc 37bb 778e 6b3b
00000350: 25b0 bdbc 22ef 2b3d d38f 523d f545 133d
00000360: 11a4 3c3d fbd4 7cbc f84d 7d3d ff91 9a39
00000370: c6cc 543d 79bf a63c ab98 9fbd 16f5 e9bc
00000380: 5c0b b5bc a719 a6bc 4afb 1a3d f097 213d
00000390: 5fe2 703c 495d e93b fc84 753a 12ec 463d
000003a0: d949 273d df57 953d 5002 d9bc 6ace 3cbc
000003b0: 3f87 623d 5587 c4bc 145f 4a3c e8c3 78bd
000003c0: 4253 4abc 8fdf e23c 6c82 013d c1cb e53c
000003d0: ae10 bcbc ed4a c63c e1bc 8e3a 0d20 20bd
000003e0: 2ff6 bbbd 5128 4b3c 7056 183c 3709 bdba
000003f0: 5d1a 2bbc a3ea e93c 47c2 373d 2e9c 943c
0.030989368 0.056243837 -0.02296129 0.031367853 0.026826018 0.034723777 0.045900036 -0.03376741
0.028307822 0.053606648 0.009680053 0.00023707654 0.06576864 0.03099511 -0.02400623 -0.12347558
-0.016072182 -0.03780836 -0.013861652 0.030115034 0.04804501 -0.026819337 -0.1228488 -0.015685601
0.053003326 0.031415958 0.040811412 -0.020773953 -0.013634484 -0.0394682 0.051124476 -0.015782535
0.06670934 0.033075407 -0.07371708 0.030886972 0.018762507 0.022860702 0.05022202 -0.023395345
-0.06433725 -0.02071618 0.004016798 0.04030559 0.0062438585 -0.00754874 0.010883467 0.0692857
-0.01685449 0.010310276 0.025868932 -0.032628864 -0.040348824 -0.020225871 0.05393746 -0.01639309
-0.014267747 0.051302228 0.011875487 0.01646629 -0.011132457 -0.048277486 0.03846268 0.0076897712
0.050223406 0.014831785 -0.0070011597 0.021616448 -0.02863929 0.004387935 0.06111419 0.0052413987
0.063581906 -0.042628758 0.04288367 -0.016668988 0.0318855 -0.09403531 0.0062258146 0.051704876
0.0860616 -0.0061967676 0.07594893 0.068315566 -0.01641614 0.088507816 0.0872542 0.0961676
-0.0041695484 -0.021590149 0.05731648 0.008391704 0.03133943 -0.0071740528 0.035326146 -0.04323625
0.0070746583 0.004016318 0.07195099 0.0054045017 0.046632368 0.0017139463 0.043164965 0.01899838
0.057364926 0.08113874 -0.0095955 0.010309413 -0.029386742 -0.0011777111 0.032830033 -0.033705972
0.02223575 0.010008751 -0.019275837 -0.02792166 0.07211195 -0.09535052 0.035998516 -0.032087374
0.044946883 0.06267799 -0.00032909645 0.06410573 0.09652797 0.037168376 -0.07144448 0.0056725033
0.01910221 -0.054674175 -0.048956346 0.0054876683 0.01654264 -0.09106665 -0.0029324412 -0.022654109
-0.019683532 -0.044385836 0.01094592 -0.021082908 0.05918021 -0.02339133 0.06330628 -0.013854965
0.060558464 0.0908671 -0.028294282 0.011583594 0.03898826 -0.058458123 -0.028142886 0.0075684288
0.0017769018 -0.034661364 0.03599639 0.016211389 -0.0019110949 -0.034054637 0.012387763 -0.0131998295
0.0060645677 0.0210315 0.07219966 -0.038723838 0.06097681 0.027361441 -0.018806221 -0.060824007
-0.0056186793 -0.04631851 -0.041100677 -0.03061337 -0.019509586 -0.0037104234 0.0033086827 0.05710059
-0.017023634 -0.028870763 0.06623582 0.023384338 0.06109164 -0.039114323 0.06376646 0.024390955
0.08304317 0.078005895 -0.070573635 0.07661823 0.059940945 0.013638954 0.01085428 0.027274044
0.016622579 -0.07035593 0.012392813 -0.02471388 0.049625643 0.06959033 -0.062606074 0.04768281
-0.034883227 0.048935503 0.08354049 -0.00964136 0.004163541 0.028494172 -0.0037069197 0.005535719
-0.034489352 -0.046132177 -0.0028074018 0.003594307 -0.023155281 0.0419761 0.051406693 0.035955388
0.046054903 -0.015431638 0.061841935 0.00029481945 0.0519531 0.020354973 -0.07792791 -0.028559249
-0.022100143 -0.020275904 0.037837304 0.03945154 0.014702409 0.007121716 0.00093658245 0.048564978
0.04084191 0.07292151 -0.02649036 -0.011523822 0.055304762 -0.023990313 0.01235177 -0.060733706
-0.012348952 0.027694492 0.03161852 0.028051259 -0.022957172 0.02420565 0.001089003 -0.039093066
-0.09177815 0.012399749 0.009297952 -0.0014422302 -0.010443297 0.028554266 0.04486301 0.018140879

layer2.bias f4 [128]
00000000: 0905 66bd a8e6 51bd 4152 113d 07a8 2bbd
00000010: ebe4 3cbd a8e7 103c ea3e 4dbd d98e f0bb
00000020: 9859 3bbc 0f10 93bd 028f 903d f8c4 dc3c
00000030: 1503 0d3d 5788 4fbd 809b ce3c ccf0 b53c
00000040: 069c 5ebd 324e 88bc 2d5a 0a3c d56d 92bc
00000050: e427 663b 4fee 87bd 784d c4bd f192 743c
00000060: 93ee e53c 7743 2e3c 18da cfbc 351d 1fbd
00000070: 524c 183d 6335 d93c 1b6e 96ba 7893 93bd
00000080: 8396 4ebd db4b 2e3c 9320 79bd 14f5 bb3c
00000090: 0757 76bb 95c0 7a3d dccb 68bd 2fab 123d
000000a0: 05df 7b3d 17c8 e1bc d554 fbbc def4 143c
000000b0: bfe6 bcbc 0f62 cfbc 0f3c c1bc 6dd8 3eba
000000c0: b1d7 f7ba 8409 c3bc f9c6 bdbc 89db 9b3c
000000d0: cc90 0bbc 86c0 263d 5b59 4abd 7c69 5c3d
000000e0: 605d 8e3c 01c2 a73c 8226 adbc 5c0e 033d
000000f0: e032 a23c ecb1 0a3d d8b3 c13c e09f cdbc
00000100: caa7 003d a7dd 5a3d f5e5 f2bb b8b1 ff3c
00000110: 6b68 94bd 9a8e 2e3d d75b 7dbc 76f5 993d
00000120: f91c a73d b1d2 acbc a599 62bc 0e13 8e3c
00000130: 8c2a 57bd 10ac 163d c4e2 0f3d 0d9c 81bc
00000140: 40d9 5c3a 5374 1fbd ec45 2f3c e154 90bd
00000150: 8bbe 893d bf01 b33c 68c3 55bd b969 3fbc
00000160: 316d 94bc 2f00 08bd aac5 c23b 486b 103c
00000170: eb97 ec3c db24 2c3d 2871 debc a2e7 a8bd
00000180: c350 41bd 2ad9 013d 7df7 7fbc 5778 343c
00000190: d3d4 1cbd d8c7 d9bc dba2 1ebd 87de 35bd
000001a0: f81e 3b3d 3422 6eba 0f4b d8bc 5bfb 083d
000001b0: a7f0 a0bd 5e0a 123d da08 813c ff9e 82bd
000001c0: 02b8 7fbd 3a93 dc3c db2c 8e3c 9da2 593d
000001d0: ab4d 91bd 6116 38bc c954 b03c e382 bdbc
000001e0: 567f 113d 4a33 353c 69f6 18bd 46d8 edbb
000001f0: f463 46bd 5a15 9d3d 2666 03bd 5612 8cbd
-0.056157146 -0.05124536 0.035478834 -0.04190829 -0.04611675 0.008844294 -0.050108828 -0.0073412475
-0.011434935 -0.07180797 0.070585266 0.02694939 0.034426767 -0.050667133 0.025220633 0.022209547
-0.054348014 -0.016638849 0.008444351 -0.017874638 0.0035118992 -0.06637251 -0.095850885 0.014927612
0.028067863 0.010636202 -0.02537255 -0.038846213 0.03718216 0.026514715 -0.0011476906 -0.07205862
-0.050436508 0.010638203 -0.06082208 0.02294401 -0.0037588493 0.061218817 -0.05683504 0.035807785
0.061491985 -0.02756123 -0.0306801 0.009091584 -0.023059247 -0.025315313 -0.023588208 -0.0007280175
-0.0018908886 -0.023808248 -0.023166167 0.019025581 -0.008518409 0.04071095 -0.049401622 0.053811535
0.017378509 0.02047825 -0.021136526 0.031996116 0.01979965 0.033861086 0.023645326 -0.025100648
0.031410016 0.05343404 -0.007412667 0.031212673 -0.07246479 0.042616464 -0.015463791 0.07517521
0.08159823 -0.02109656 -0.013830577 0.01734307 -0.05253081 0.036785185 0.03512837 -0.015821481
0.0008424707 -0.038929295 0.010697823 -0.07047439 0.06725796 0.021851419 -0.052188307 -0.011682921
-0.018118473 -0.0332033 0.0059439735 0.00881464 0.028881034 0.042027336 -0.027153566 -0.082473055
-0.04719616 0.031701244 -0.015622971 0.011015019 -0.038288902 -0.02658455 -0.03872953 -0.04440167
0.04568383 -0.0009084076 -0.026402978 0.033442836 -0.07858401 0.03565442 0.015751291 -0.06377982
-0.062431343 0.026925672 0.017355373 0.053133596 -0.07094892 -0.011235804 0.021524804 -0.0231337
0.035521828 0.011059592 -0.03734437 -0.007258448 -0.048435166 0.07670088 -0.03207984 -0.06839435

bn2.weight f4 [128]
00000000: 1f67 4b3f 2c66 523f f754 643f cb10 483f
00000010: 6281 413f f3d1 883f fcc5 553f 6e14 7c3f
00000020: c8fd 473f ac61 773f 648e 883f 1a12 7d3f
00000030: 85ac 443f 5320 4e3f f549 6a3f 529e 8d3f
00000040: 8681 5f3f 8bdb 4d3f 039d 5f3f bcdb 4e3f
00000050: aad0 783f eaf5 4b3f 9fc4 6b3f 2c5e 813f
00000060: a59b 803f c1eb 4b3f 567b 4e3f f8af 423f
00000070: 672b 503f 9e58 823f 72a0 813f 7c4a 7e3f
00000080: 6fcf 863f 9cf3 4c3f 2211 643f c4b5 7d3f
00000090: c83d 4e3f 0ea4 643f c0ab 753f 7681 5b3f
000000a0: cd41 5a3f 7155 7e3f edbe 473f d594 803f
000000b0: a1b3 4f3f 92f3 6d3f 1fcc 6e3f 2324 693f
000000c0: 90c5 433f ffcb 773f ef3e 453f 7610 423f
000000d0: 803f 323f fcaa 433f de41 6f3f 39e1 6c3f
000000e0: d8e5 413f 8f67 5b3f 35ab 5b3f 89c4 503f
000000f0: c6d3 853f 444c 843f e049 863f 76cb 743f
00000100: 7d68 4c3f 3ee9 793f 2ef4 4e3f 500e 8b3f
00000110: dd0f 4f3f 8dd1 793f f9a6 5c3f 47f4 6e3f
00000120: fc1e 5a3f 31e5 453f 6cf4 503f f9b1 453f
00000130: 1a48 333f 05af 583f 5cf3 813f a825 6f3f
00000140: 229c 833f 4366 483f acc4 7a3f 0c83 3c3f
00000150: 9cba 4b3f 95b0 4c3f 6769 693f 2024 593f
00000160: ea4d 473f 8867 5a3f 7a69 543f 111a 613f
00000170: bd5b 703f 14e5 563f dfe6 433f ea7e 5d3f
00000180: 477e 563f 9590 6c3f 317a 663f c733 463f
00000190: cb6c 413f db61 813f 4d1e 663f e105 503f
000001a0: 69f9 783f 376a 4a3f 7ba9 4a3f 81fe 4b3f
000001b0: 3a66 803f dc69 723f a957 873f 46b6 593f
000001c0: 192e 523f dc74 803f b79d 8a3f 16ef 7f3f
000001d0: 601d 433f fd63 563f 1e4b 443f 2630 3f3f
000001e0: ee09 863f 4b18 523f fce2 483f d0e9 513f
000001f0: 5e22 4c3f eac0 4e3f ab2c 653f 3cb3 4e3f
0.79454225 0.8218715 0.89192146 0.78150624 0.7558805 1.0689071 0.83505225 0.98468673
0.78121614 0.9663341 1.0668454 0.98855746 0.76825744 0.8051807 0.915191 1.106394
0.8730701 0.8041312 0.87348956 0.8080404 0.97193396 0.7967211 0.92096895 1.0106864
1.0047499 0.79656607 0.80656946 0.76049757 0.81316227 1.0183294 1.0127089 0.99332404
1.0532054 0.8005922 0.8908864 0.9910548 0.8056302 0.8931283 0.95965195 0.85744417
0.85256654 0.99349123 0.78025705 1.004542 0.81133467 0.92949784 0.93280214 0.91070765
0.7647333 0.9679565 0.77049154 0.7580637 0.69628143 0.76432776 0.9345988 0.9253116
0.7574134 0.8570489 0.85808116 0.8154989 1.0455253 1.0335774 1.0491295 0.95622957
0.79846936 0.97621524 0.8084134 1.0863743 0.8088358 0.97585374 0.8619228 0.9334149
0.8520353 0.77302843 0.8162296 0.7722469 0.70031893 0.8464206 1.0152392 0.93416834
1.0282023 0.7828104 0.9795635 0.7363746 0.7958162 0.7995694 0.91176456 0.8482075
0.7785326 0.85314226 0.82973444 0.879304 0.9388998 0.83943295 0.76524156 0.8652178
0.83786434 0.92408115 0.900302 0.77422756 0.7555663 1.0107988 0.89889985 0.8125897
0.9725557 0.7906832 0.79164857 0.7968522 1.0031197 0.9469278 1.0573627 0.8504375
0.8210159 1.0035663 1.0829381 0.9997419 0.762167 0.8374632 0.7667712 0.74682844
1.047178 0.8206832 0.7847135 0.81997395 0.7973994 0.80763113 0.8952128 0.8074224
