3_model_training/model4.pth (torch, 263386 bytes, 26 tensors)

layer1.weight f4 [256, 72]
0	0xbd2d53ea	-0.042316355
1	0x3da65743	0.081221126
2	0x3c26f83d	0.010191021
3	0xbda5f974	-0.0810422
4	0xbd19b010	-0.037521422
5	0xbd2ec015	-0.042663652
6	0xbb8bc22f	-0.004265092
7	0xbd5b36a4	-0.053518906
8	0x3d4339cd	0.047662545
9	0x3d8e5642	0.06950046
10	0x3de6f573	0.112772845
11	0xbdfd0da6	-0.12356119
12	0x3de5f8eb	0.11229118
13	0xbcd5a42c	-0.02607926
14	0x3df6cd38	0.12050861
15	0xbceb212d	-0.028702343
16	0xbde8cb03	-0.113668464
17	0xbd0e8d0c	-0.03480248
18	0x3c20b249	0.0098081315
19	0xbdb073b1	-0.086158164
20	0x3e01907d	0.12652774
21	0x3dbe12b3	0.0928091
22	0x3c0475df	0.008084743
23	0xbd3695ae	-0.04457634
24	0x3cd3d7b8	0.025859699
25	0x3d932bf7	0.0718612
26	0x3dadd723	0.084883
27	0x3bdd91b7	0.0067617553
28	0xbcdd205a	-0.026992965
29	0x3d026739	0.031836722
30	0x39669d51	0.00021993114
31	0xbc6a6850	-0.014307097
32	0x3baec656	0.005333702
33	0xbd5a9b38	-0.053370684
34	0xbab59746	-0.0013854287
35	0xbccaac7f	-0.024740456
36	0xbd9f2a2f	-0.07771718
37	0x3c819b29	0.015821056
38	0xbd82693b	-0.06367727
39	0x3d952c77	0.072838716
40	0x3d120a81	0.03565455
41	0x3b3ca336	0.0028783805
42	0xbc60ad5f	-0.01371321
43	0xbd41b960	-0.047295928
44	0xbd573fc2	-0.05255104
45	0x3d987e12	0.07445921
46	0x3c562d03	0.013072255
47	0x3db8e3ed	0.090278484
48	0x3c3ec78b	0.011644254
49	0xbd3a0c54	-0.045421913
50	0x3d4d1607	0.050069835
51	0x3cca976b	0.024730405
52	0x3d57a0da	0.052643634
53	0x3c3b339d	0.01142588
54	0xbda5930c	-0.080846876
55	0x3d81aed7	0.06332176
56	0xbd06ae4a	-0.03288106
57	0x3cdf4904	0.027256496
58	0xbd9d6d74	-0.07686892
59	0xbb8fd2ec	-0.0043891575
60	0xbcfcda38	-0.030865774
61	0x3d244ab7	0.040110316
62	0xbd92df87	-0.07171541
63	0x3d260ba9	0.040538464
64	0xbcf9ffd0	-0.030517489
65	0x3d2043de	0.039127223
66	0xbd2eaa52	-0.0426429
67	0xbd9aac01	-0.075523384
68	0xbddcdc06	-0.10784154
69	0x3ade9e51	0.0016984438
70	0x3e066f5b	0.13128416
71	0x3d7bea8e	0.061502986
72	0x3cfdaf72	0.030967448
73	0x3c3ee606	0.011651522
74	0xbc83fcd2	-0.016111765
75	0xbd93e01c	-0.0722048
76	0x3e056a52	0.13028839
77	0xbc22a109	-0.009926089
78	0x3d9bb4f9	0.07602877
79	0x3d2733a2	0.040820725
80	0xbd4604d2	-0.04834444
81	0x3c821601	0.015879633
82	0x3e13877d	0.14407153
83	0xbd551083	-0.0520177
84	0x3c84c51f	0.016207276
85	0x3d685c61	0.056728724
86	0x3c0042db	0.00782844
87	0xbc932bce	-0.017965224
88	0x3dd935f8	0.10605997
89	0xbd9c6d39	-0.0763802
90	0xbd778895	-0.06043299
91	0xbe15527c	-0.14582247
92	0x3da3f583	0.08005812
93	0x3d1830c5	0.037155885
94	0x3c852594	0.01625327
95	0x3da8781f	0.08226036
96	0xbdce6124	-0.10077122
97	0x3db6d7ad	0.08927856
98	0xbd0713ef	-0.032977995
99	0xbcfc4662	-0.03079528
100	0x3d3033b0	0.043018043
101	0x3b94d161	0.0045415615
102	0x3d160964	0.03663005
103	0x3c9e26c6	0.019305598
104	0x3b50c0f1	0.0031853283
105	0x3d0cf99d	0.034417737
106	0x3de6a4ac	0.112618774
107	0x3ddcbabb	0.107778035
108	0x3da7b151	0.08188117
109	0xbd7e5148	-0.062089235
110	0xbd7aa831	-0.061195556
111	0x3db7229f	0.0894215
112	0x3c3d8c22	0.011569055
113	0x3bb6a35d	0.0055736736
114	0xbcf0d5df	-0.029398857
115	0xbd915117	-0.07095545
116	0x3df2d050	0.11856139
117	0x3d6c08f3	0.057625722
118	0x3d6a5450	0.057209313
119	0xbc04a224	-0.008095298
120	0x3d8090e6	0.06277637
121	0xbccbd22b	-0.02488049
122	0x3d7ffe59	0.062498424
123	0xba9f763c	-0.0012165974
124	0x3dfae6e7	0.122510724
125	0xbd842ec9	-0.06454236
126	0x3e04b7a7	0.12960683
127	0x3dce7c16	0.10082261
128	0x3dc4f2c4	0.09616616
129	0xbd8a82d0	-0.06763232
130	0x3c73a8da	0.0148718
131	0xbd56ecd3	-0.052471947
132	0xbd9671b1	-0.07345904
133	0xbd97c937	-0.074114256
134	0xbd8e95b9	-0.06962151
135	0xbc020639	-0.007936054
136	0x3cde3330	0.027124017
137	0x3d7deb31	0.061991874
138	0xbd9de8f8	-0.07710451
139	0xbd45c4ec	-0.048283502
140	0xbdf25586	-0.118327186
141	0x3d7e31c8	0.062059194
142	0x3de513f9	0.1118545
143	0xbd6f94bb	-0.05849145
144	0xbcd7b8e4	-0.02633328
145	0x3daed744	0.085371524
146	0xbd1c2b28	-0.038127095
147	0xbc23a9f5	-0.009989251
148	0xbb862669	-0.0040939343
149	0xbccdea70	-0.025136203
150	0x3b4aa077	0.0030918398
151	0xbe09804a	-0.13427845
152	0xbc9f9e39	-0.019484626
153	0x3d3050a7	0.043045666
154	0xbe7dbeeb	-0.2477986
155	0x3bac3115	0.0052548745
156	0xbd8f0c78	-0.069848
157	0xbde8b15d	-0.11361954
158	0x3dd5fc79	0.10448546
159	0x3d1a6640	0.03769517
160	0x3c826eb4	0.015921928
161	0xbd5e6bff	-0.05430221
162	0xbd02876c	-0.03186743
163	0x3d73d5a2	0.059529908
164	0xbe02baa5	-0.12766512
165	0xbcc5d653	-0.02415005
166	0x3d15ff3c	0.036620364
167	0xbd369a1f	-0.044580575
168	0xbd304f9d	-0.043044675
169	0xbc8530e3	-0.016258663
170	0xbcd8fb02	-0.026486877
171	0xbdd2aa53	-0.10286393
172	0xbb6321ee	-0.0034657675
173	0xb9e21847	-0.00043124167
174	0xbd3fd696	-0.046835504
175	0x3c12a7cf	0.0089511415
176	0xbdd7a865	-0.105301656
177	0x3d90e586	0.07075028
178	0x3cd829b8	0.02638708
179	0xbd7fb003	-0.062423717
180	0x3d069c3f	0.03286385
181	0xbc41f9bb	-0.011839326
182	0xbda96ef7	-0.08273118
183	0xbd7c8c1c	-0.061657056
184	0x3d05efe2	0.032699473
185	0xbd839f5b	-0.06426879
186	0xbd7bb955	-0.061456043
187	0x3d81e253	0.06341996
188	0xba844fd3	-0.001009459
189	0x3d46264f	0.048376378
190	0x3d2929a0	0.041299462
191	0x3da5a986	0.08088975
192	0x3d190751	0.037360493
193	0x3da9bb14	0.082876354
194	0x3d844399	0.06458206
195	0xbd07093b	-0.032967787
196	0x3cf8fd31	0.030394169
197	0xbcad14dd	-0.021128112
198	0xbda99458	-0.082802474
199	0xbcc9ae8f	-0.024619369
200	0x3d68d36a	0.056842245
201	0x3d8d18ca	0.06889494
202	0xbc2f4c59	-0.010699355
203	0x3db721c5	0.08941988
204	0xbdb0c250	-0.08630812
205	0xbd897677	-0.067120485
206	0x3ce29763	0.027660077
207	0x3d693c10	0.056942046
208	0xbddd5dbc	-0.10808894
209	0x3d8946e1	0.06702972
210	0xbd2695c9	-0.04067019
211	0xbbf1c08f	-0.007377691
212	0x3c58a9ca	0.013224075
213	0x3dee4222	0.116337076
214	0xbbe3e8b6	-0.0069552315
215	0x3db82ce2	0.08992936
216	0xbdb52341	-0.08844615
217	0xbc0ae54f	-0.008477523
218	0xbba4608d	-0.0050163926
219	0xbd3bc137	-0.04583856
220	0x3cb54ac9	0.022130387
221	0x3d80daa5	0.06291703
222	0xbd37810a	-0.044800796
223	0x3e05dec1	0.13073255
224	0x3d93dd8f	0.07219993
225	0xbd086bd7	-0.03330597
226	0x3e33e4c6	0.17567739
227	0x3ca50937	0.020145996
228	0xbc126f89	-0.008937725
229	0x3daf6db9	0.0856585
230	0x3d2d262b	0.042272728
231	0x3df440ed	0.11926446
232	0x3dada95a	0.08479567
233	0xbd77b38e	-0.06047397
234	0xbd8fd5fa	-0.07023235
235	0xbdcfca87	-0.10146051
236	0x3d86c85c	0.06581184
237	0xbd936dbd	-0.07198665
238	0x3cf36729	0.029712277
239	0xbd9057d8	-0.07048005
240	0xbd4742b0	-0.048647583
241	0x3b47de8d	0.003049764
242	0x3dbbe5a3	0.09174659
243	0xbb3c1fbd	-0.002870544
244	0xbcb37ccb	-0.021910092
245	0x3d147823	0.036247384
246	0x3dbed30d	0.093175985
247	0x3dc543dd	0.096320845
248	0x3c0825e0	0.008309811
249	0x3da217aa	0.0791467
250	0x3d350f7f	0.04420423
251	0xbd8c1406	-0.06839757
252	0x3da4590f	0.08024799
253	0xbc5bb08a	-0.013408789
254	0x3ddd0996	0.10792844
255	0x3d5b5886	0.05355122

layer1.bias f4 [256]
0	0xbd1173fd	-0.035511006
1	0x3dcafff9	0.09912104
2	0x3d4b3b9c	0.049617395
3	0x3dcebdb4	0.10094777
4	0x3d35bdab	0.044370335
5	0x3c989fc0	0.018630862
6	0x3cc3b45b	0.023889711
7	0xbd8c7f68	-0.06860238
8	0x3c06178a	0.008184323
9	0xbdb8d034	-0.090240866
10	0xbdb92fd1	-0.090423234
11	0xbd2bf391	-0.04198033
12	0xbdb7d92e	-0.089769706
13	0x3dc8a51b	0.09797116
14	0xbd2bf80d	-0.041984607
15	0xbdba2a14	-0.09090057
16	0x3d1b41ac	0.037904426
17	0xbde9e75c	-0.114210814
18	0xbd62adca	-0.05534152
19	0xbd76dae1	-0.060267333
20	0x3db568c2	0.088578716
21	0x3dd835a9	0.1055711
22	0x3cd296d7	0.025706692
23	0xbd91cf3f	-0.07119607
24	0x3dd0a591	0.10187829
25	0xbd86ce94	-0.065823704
26	0xbdb45db9	-0.08806939
27	0xbcb5a8e9	-0.02217527
28	0xbc4289e9	-0.011873701
29	0xbbec5331	-0.0072120656
30	0xbd834d7e	-0.06411265
31	0x3d6bdfef	0.057586607
32	0xbd831523	-0.06400516
33	0xbdbe663a	-0.09296842
34	0x3d9681d6	0.07348983
35	0x3da97c58	0.0827567
36	0xbd5f0d1f	-0.054455873
37	0xbdbf4fe0	-0.09341407
38	0xbd7b81bf	-0.061403032
39	0x3d21324d	0.03935461
40	0xbd87cca1	-0.06630827
41	0xbdea3202	-0.114353195
42	0x3d53bb06	0.05169203
43	0x3c681799	0.014165782
44	0xbdc2c070	-0.09509361
45	0xbd938dcb	-0.07204779
46	0xbd2e0541	-0.04248548
47	0xbdb229ad	-0.08699355
48	0x3e0459a6	0.12924823
49	0x3e02b2d3	0.12763529
50	0x3d9a4a21	0.0753367
51	0xbd526014	-0.05136116
52	0x3b9ccfdc	0.004785521
53	0x3de8f77c	0.11375329
54	0x3dba7f94	0.09106365
55	0x3dcd01f5	0.10010139
56	0x3c99dafd	0.01878118
57	0x3dad5897	0.08464163
58	0xbdd05376	-0.10172169
59	0xbdfad4cd	-0.1224762
60	0xbcad0d08	-0.021124378
61	0xbd673a22	-0.056451924
62	0xbd301ea7	-0.042997982
63	0x3d4e60b6	0.0503852
64	0xbcf0d7c9	-0.02939977
65	0xbd8dba25	-0.0692027
66	0x3d4b7b45	0.049678106
67	0xbd0d42c4	-0.0344875
68	0xbc6e21e1	-0.014534445
69	0xbd46fcfe	-0.048581116
70	0xbe0a38b9	-0.134982
71	0xbc1b092a	-0.009462634
72	0xbda66078	-0.08123869
73	0xbdc1ae5a	-0.09457083
74	0x3dd901b4	0.10596028
75	0x3ddef30a	0.108862
76	0xbd1aaae8	-0.037760645
77	0x3dd9686a	0.106156185
78	0xbda46f5a	-0.08029051
79	0x3da13d1d	0.078729846
80	0x3d7375f7	0.059438672
81	0x3d549d14	0.051907614
82	0xbce7702b	-0.028251728
83	0xbd00f860	-0.03148687
84	0xbdeb79e1	-0.11497856
85	0x3dd9166e	0.10599981
86	0xbdce9029	-0.1008609
87	0x3dbe5a90	0.09294617
88	0xbd8708cc	-0.06593475
89	0x3d2ca4b0	0.042149246
90	0x3d78bf33	0.060729217
91	0xbdd668ef	-0.10469233
92	0xbc036a55	-0.008020957
93	0x3d977f49	0.073973246
94	0xbdc4ac1d	-0.096031405
95	0xbcd5ce1e	-0.02609926
96	0xbcb710dd	-0.022346908
97	0xbd2bb040	-0.041916132
98	0xbd8edaa1	-0.06975294
99	0x3d5a779a	0.053336717
100	0xbd0b1d73	-0.03396363
101	0xbda6433f	-0.08118295
102	0x3d9be3c1	0.076118
103	0xbdb64e76	-0.08901684
104	0xbe0d1757	-0.13778435
105	0xbddddadf	-0.10832762
106	0x3dac5a40	0.08415651
107	0x3d8df94f	0.069323175
108	0x3e069b90	0.1314528
109	0x3de3068b	0.11085232
110	0xbd11e384	-0.035617366
111	0xbdd79c76	-0.105278894
112	0xbdcdc265	-0.100468434
113	0xbd2772d1	-0.04088098
114	0x3d75e2e8	0.060030848
115	0xbdf4eae5	-0.11958865
116	0x3dca3a76	0.09874432
117	0x3dbc5cc2	0.0919738
118	0xbd86ccfe	-0.06582068
119	0xbdffdb4f	-0.12493002
120	0xbc29b813	-0.010358828
121	0x3ca2526e	0.019814696
122	0x3c8a2c44	0.01686681
123	0xbda58c42	-0.08083393
124	0x3dc3cc32	0.095604315
125	0x3d90a49d	0.070626475
126	0x3db516d2	0.08842243
127	0x3cae34cf	0.021265415
128	0x3dac30f3	0.08407774
129	0xbd3e57cf	-0.04647046
130	0xbd4f6a01	-0.050638203
131	0xbd889a18	-0.06670016
132	0xbdf6cadf	-0.12050413
133	0x3cafc178	0.021454558
134	0xbcf78ede	-0.030219492
135	0xbd5c3e13	-0.053770136
136	0xbdea511e	-0.11441253
137	0x3cb7309b	0.022362044
138	0xbdde6c1e	-0.108604655
139	0xbccd6e6d	-0.02507707
140	0xbd6e525c	-0.058184013
141	0xbdb17eac	-0.08666739
142	0x3d4527e8	0.04813376
143	0xbd492f3e	-0.04911732
144	0xbd95e272	-0.07318582
145	0xbd08f3ec	-0.033435747
146	0xbda4d154	-0.08047739
147	0x3d08fadb	0.03344236
148	0xbd875560	-0.06608081
149	0xbdc78cf7	-0.09743684
150	0x3d97eeaa	0.074185684
151	0xbdc23ed1	-0.094846375
152	0xbdbaa4c7	-0.0911346
153	0x3d458faa	0.04823271
154	0x3ddf0f87	0.108916335
155	0xbdc43b68	-0.09581643
156	0xbcf4ab51	-0.029866846
157	0xbcbc98af	-0.023022024
158	0x3d3536c7	0.044241693
159	0x3ca6b7a7	0.020351244
160	0xbdef9160	-0.1169765
161	0x3cc5d6b8	0.024150237
162	0x3da59fa7	0.08087092
163	0x3dbca529	0.09211189
164	0x3d838985	0.06422714
165	0x3d3dfd4c	0.04638414
166	0x3a6d6e1e	0.0009057241
167	0xbc7e99a8	-0.015539564
168	0x3db728c7	0.089433245
169	0xbc97bd36	-0.01852284
170	0x3d1dc856	0.038521133
171	0xbe002315	-0.12513383
172	0xbd8cd251	-0.06876052
173	0xbdb158e6	-0.08659534
174	0xbe0686ae	-0.13137314
175	0xbd8f6029	-0.07000763
176	0xbcc488ac	-0.023990951
177	0xbcbe5007	-0.02323152
178	0x3dd1b41d	0.10239432
179	0xbd343f1a	-0.04400549
180	0xbde216f8	-0.11039537
181	0xbd6cf6e6	-0.05785265
182	0x3db425f0	0.087962985
183	0xbbaf5535	-0.0053507336
184	0xbd98e673	-0.0746583
185	0x3da6a1eb	0.08136352
186	0x3d1d7e37	0.038450446
187	0xbcf0a46f	-0.029375283
188	0xbde0444e	-0.10950528
189	0xbdb8def7	-0.09026902
190	0x3ab35b77	0.0013683875
191	0xbbcda063	-0.006275223
192	0x3db3f4b3	0.08786907
193	0x3d60f16b	0.054917734
194	0xb9964f42	-0.0002866928
195	0xbd2b029c	-0.041750535
196	0x3de8e597	0.11371916
197	0x3db3fe21	0.087887056
198	0xbdef7d0e	-0.11693774
199	0xbb7186f8	-0.003685413
200	0x3da6750e	0.08127795
201	0xbd835425	-0.06412534
202	0x3dc9de4f	0.09856855
203	0xbc95c3ad	-0.018281782
204	0xbdedcd9b	-0.11611482
205	0xbd01bb85	-0.031672973
206	0xbc8b3549	-0.016993182
207	0xbbdad259	-0.0066779074
208	0x3b34bc2b	0.0027577977
209	0x3d944650	0.072399735
210	0x3d72d00b	0.059280436
211	0x3db3871a	0.08766003
212	0x3cb57d98	0.022154614
213	0xbdc9ff53	-0.09863152
214	0x3dbb8ed8	0.09158105
215	0x3e026350	0.12733197
216	0x3da7a07b	0.08184906
217	0x3d97610c	0.07391557
218	0xbc058eee	-0.008151753
219	0x3d563730	0.052298725
220	0x3ddfc5c0	0.1092639
221	0x3c43da9e	0.011953978
222	0xbd3d976f	-0.046286996
223	0xbcd8d95e	-0.026470836
224	0xbce4292e	-0.027851667
225	0xbd7604ef	-0.0600633
226	0x3e0b4ef8	0.13604343
227	0x3d4306b6	0.047613822
228	0xbdc85d4e	-0.097834215
229	0xbdd5e49d	-0.10443995
230	0x3d5420e4	0.05178918
231	0x3da2e372	0.07953538
232	0xbce57225	-0.02800853
233	0x3d5f8a59	0.054575298
234	0x3d259abb	0.040430766
235	0xbc3c8193	-0.011505502
236	0x3d00bb4f	0.03142863
237	0xbd7db264	-0.061937705
238	0xbbcbe1d3	-0.0062219887
239	0x3dd88562	0.10572316
240	0x3c81d14a	0.015846867
241	0xbd7d75d8	-0.061879963
242	0x3cbd2133	0.02308712
243	0x3df0a413	0.11750045
244	0xbcb7e90e	-0.022449996
245	0x3d86d1b9	0.0658297
246	0x3df3d44d	0.119057275
247	0xbcbbb091	-0.022911342
248	0x3d96c07b	0.073609315
249	0x3d0c9f2f	0.034331497
250	0xbd22b3b1	-0.03972215
251	0x3df46df8	0.119350374
252	0xbd713570	-0.058888853
253	0x3d29dee4	0.04147233
254	0x3da56529	0.080759354
255	0x3d2ad6c0	0.041708708

bn1.weight f4 [256]
0	0x3f8210c1	1.0161363
1	0x3f76c736	0.9639772
2	0x3f81133c	1.0083995
3	0x3f804243	1.0020221
4	0x3f761328	0.9612298
5	0x3f805b3a	1.002784
6	0x3f814b2b	1.0101064
7	0x3f7cadb8	0.98702574
8	0x3f6e6b98	0.93132925
9	0x3f802774	1.001204
10	0x3f892911	1.0715657
11	0x3f755aef	0.9584188
12	0x3f650047	0.8945355
13	0x3f81dc18	1.0145292
14	0x3f7108a7	0.9415383
15	0x3f7dacbd	0.990917
16	0x3f85ff36	1.0468509
17	0x3f6728a9	0.9029642
18	0x3f6dc16b	0.9287326
19	0x3f824fad	1.0180565
20	0x3f85fc0e	1.0467546
21	0x3f7c643f	0.98590463
22	0x3f8515e2	1.0397303
23	0x3f6bea45	0.9215434
24	0x3f7a84ad	0.978587
25	0x3f5ac56f	0.8545751
26	0x3f71e1f9	0.9448543
27	0x3f676538	0.9038882
28	0x3f818f6e	1.0121896
29	0x3f8bfc5f	1.0936393
30	0x3f824305	1.0176703
31	0x3f7ab83e	0.9793738
32	0x3f7db740	0.9910774
33	0x3f871b25	1.0555159
34	0x3f8692b1	1.0513517
35	0x3f7717f4	0.96520925
36	0x3f86a1bd	1.0518109
37	0x3f81d9ac	1.0144553
38	0x3f6915be	0.910488
39	0x3f776380	0.966362
40	0x3f84089b	1.0315126
41	0x3f81db63	1.0145077
42	0x3f7876d1	0.970563
43	0x3f828de2	1.0199549
44	0x3f6bef4f	0.9216203
45	0x3f80208e	1.0009935
46	0x3f835928	1.0261583
47	0x3f75f86f	0.96082205
48	0x3f7a4fbd	0.9777792
49	0x3f7cd436	0.9876131
50	0x3f63acae	0.88935363
51	0x3f7669e4	0.96255326
52	0x3f7960bc	0.9741323
53	0x3f7d1aef	0.9886922
54	0x3f7ff4bd	0.99982816
55	0x3f6aea70	0.91763973
56	0x3f7ce000	0.98779297
57	0x3f7c07d1	0.98449427
58	0x3f5ee94e	0.87074745
59	0x3f784bf1	0.9699088
60	0x3f6c0877	0.92200416
61	0x3f7376d6	0.95103204
62	0x3f86a8c3	1.0520252
63	0x3f7319ec	0.9496143
64	0x3f8af731	1.0856687
65	0x3f75a692	0.9595729
66	0x3f803150	1.0015049
67	0x3f7831c2	0.96950924
68	0x3f7f6b41	0.9977303
69	0x3f758e9a	0.9592072
70	0x3f82e44b	1.022592
71	0x3f859a04	1.0437627
72	0x3f81e379	1.0147544
73	0x3f77e3b5	0.9683183
74	0x3f76fce8	0.96479654
75	0x3f7b4ec2	0.9816705
76	0x3f7ec295	0.9951566
77	0x3f7814c7	0.96906704
78	0x3f64d6b3	0.89390105
79	0x3f84d7d9	1.0378371
80	0x3f7f2c02	0.99676526
81	0x3f78cd4f	0.97188276
82	0x3f70a6f7	0.9400477
83	0x3f8069da	1.0032303
84	0x3f6ce0ec	0.92530704
85	0x3f734191	0.9502192
86	0x3f815c38	1.0106268
87	0x3f801df9	1.0009147
88	0x3f834ed5	1.0258433
89	0x3f710838	0.94153166
90	0x3f8519fe	1.0398557
91	0x3f78be41	0.97165304
92	0x3f605a7e	0.8763808
93	0x3f6e0c9a	0.9298798
94	0x3f86de63	1.0536617
95	0x3f73337e	0.95000446
96	0x3f7ae141	0.9799996
97	0x3f7dc78f	0.9913263
98	0x3f71803b	0.9433629
99	0x3f82b60c	1.0211806
100	0x3f76c5b6	0.9639543
101	0x3f82ded7	1.0224255
102	0x3f7a7903	0.978409
103	0x3f6c5312	0.92314255
104	0x3f8551c1	1.0415574
105	0x3f871c5c	1.055553
106	0x3f893ccf	1.0721682
107	0x3f6dcb89	0.92888695
108	0x3f698fa9	0.91234833
109	0x3f81fb4c	1.0154815
110	0x3f82d5b7	1.022147
111	0x3f7ee884	0.9957354
112	0x3f6be8ed	0.9215229
113	0x3f7a2c32	0.97723687
114	0x3f68f4b9	0.9099842
115	0x3f6edfc0	0.93310165
116	0x3f769ba6	0.9633125
117	0x3f724f44	0.946522
118	0x3f84701c	1.0346713
119	0x3f6b2b12	0.91862595
120	0x3f7e8dfd	0.99435407
121	0x3f7ac366	0.97954404
122	0x3f7cf7c9	0.9881559
123	0x3f79f5d1	0.9764071
124	0x3f84d975	1.0378863
125	0x3f801dde	1.0009115
126	0x3f750586	0.95711553
127	0x3f6d3f19	0.92674404
128	0x3f6fd7bc	0.9368856
129	0x3f7decef	0.99189657
130	0x3f7e6be2	0.99383366
131	0x3f6ab3c6	0.9168056
132	0x3f687613	0.90805167
133	0x3f80ade1	1.0053064
134	0x3f78d1fd	0.97195417
135	0x3f7d9d46	0.99068105
136	0x3f705b77	0.93889564
137	0x3f6fd8ee	0.93690383
138	0x3f758c80	0.9591751
139	0x3f761e43	0.96139926
140	0x3f7e2530	0.99275494
141	0x3f7af90a	0.98036253
142	0x3f816dc0	1.0111618
143	0x3f8013a5	1.0005995
144	0x3f745581	0.9544297
145	0x3f813ef1	1.0097333
146	0x3f5cfc7b	0.86322755
147	0x3f7f0cf0	0.99629116
148	0x3f773350	0.9656267
149	0x3f835cce	1.0262697
150	0x3f6dfb5a	0.9296166
151	0x3f8522a8	1.0401201
152	0x3f83ac57	1.0286969
153	0x3f7f0779	0.9962078
154	0x3f7f1d35	0.9965394
155	0x3f83a400	1.0284424
156	0x3f76aff5	0.9636224
157	0x3f6627bb	0.89904374
158	0x3f864ffa	1.0493157
159	0x3f6a38c9	0.914929
160	0x3f8994b5	1.0748507
161	0x3f64a4bc	0.89313865
162	0x3f80b5a4	1.0055432
163	0x3f843fb1	1.0331937
164	0x3f80862f	1.004095
165	0x3f85f60b	1.0465711
166	0x3f82bee3	1.0214504
167	0x3f815ef8	1.0107107
168	0x3f72f829	0.9490991
169	0x3f70eed2	0.9411441
170	0x3f82be85	1.0214392
171	0x3f7624c9	0.9614988
172	0x3f7e8420	0.99420357
173	0x3f862b89	1.0482036
174	0x3f71a5bb	0.9439351
175	0x3f7cce06	0.98751867
176	0x3f776760	0.9664211
177	0x3f80ee9c	1.0072818
178	0x3f7ef812	0.99597275
179	0x3f7f0e43	0.99631137
180	0x3f86e617	1.0538968
181	0x3f7ae545	0.9800609
182	0x3f801d34	1.0008912
183	0x3f819a2e	1.0125177
184	0x3f85d902	1.045685
185	0x3f7cd2f4	0.9875939
186	0x3f835a6c	1.026197
187	0x3f6c0315	0.921922
188	0x3f8613dd	1.0474812
189	0x3f63891e	0.888811
190	0x3f78a444	0.9712565
191	0x3f8a6f58	1.081523
192	0x3f7e0fce	0.99242866
193	0x3f792714	0.97325253
194	0x3f7da27a	0.99076045
195	0x3f82ccbb	1.0218729
196	0x3f826bee	1.0189188
197	0x3f83cc2c	1.0296683
198	0x3f63f4a2	0.89045155
199	0x3f80630d	1.0030228
200	0x3f7c0f09	0.9846044
201	0x3f88b2ea	1.06796
202	0x3f84dd57	1.0380048
203	0x3f771f75	0.96532375
204	0x3f82d755	1.0221964
205	0x3f8028ef	1.0012492
206	0x3f838a89	1.0276653
207	0x3f6be8ac	0.92151904
208	0x3f811f42	1.0087664
209	0x3f7a9b8f	0.97893614
210	0x3f787c82	0.97064984
211	0x3f84ee73	1.0385269
212	0x3f7f00ca	0.9961058
213	0x3f6daf19	0.928453
214	0x3f69446a	0.91120017
215	0x3f83a016	1.0283229
216	0x3f77dccd	0.9682129
217	0x3f80c683	1.0060581
218	0x3f75f2aa	0.960734
219	0x3f80217b	1.0010217
220	0x3f7d7b50	0.99016285
221	0x3f63af1f	0.8893909
222	0x3f85e86e	1.0461557
223	0x3f7c4d35	0.9855531
224	0x3f817f7f	1.0117034
225	0x3f70e133	0.94093627
226	0x3f737d6e	0.95113266
227	0x3f7694be	0.9632071
228	0x3f5e94d5	0.8694585
229	0x3f7f7b10	0.99797153
230	0x3f672efa	0.90306056
231	0x3f84686a	1.0344365
232	0x3f82e766	1.0226867
233	0x3f726d94	0.9469845
234	0x3f776fe9	0.96655136
235	0x3f876b65	1.0579649
236	0x3f710373	0.9414589
237	0x3f7594dd	0.9593027
238	0x3f6e418d	0.9306877
239	0x3f789daf	0.97115606
240	0x3f848453	1.0352882
241	0x3f7fab6e	0.99870956
242	0x3f7d30c2	0.98902524
243	0x3f72581a	0.9466568
244	0x3f72f316	0.9490217
245	0x3f8678d1	1.050562
246	0x3f7eb1be	0.99489963
247	0x3f817bb8	1.0115881
248	0x3f7ce0ef	0.9878072
249	0x3f7e7b73	0.9940712
250	0x3f7b55cd	0.98177797
251	0x3f81fa0f	1.0154437
252	0x3f83c90b	1.0295728
253	0x3f79e7e4	0.9761946
254	0x3f84fd55	1.0389811
255	0x3f6881a4	0.90822816

bn1.bias f4 [256]
0	0xbddeadfd	-0.108730294
1	0xbd7bde9e	-0.0614916
2	0xbd864ff7	-0.06558221
3	0xbe0a4895	-0.1350425
4	0xbe18d2c1	-0.14924146
5	0xbdb79ca6	-0.08965425
6	0xbcb1a9c6	-0.0216874
7	0xbd6211a9	-0.055192623
8	0xbdd92c3f	-0.106041424
9	0xbd1a11da	-0.03761468
10	0xbe4e06ac	-0.20119733
11	0xbdba6762	-0.0910175
12	0xbdb8823b	-0.090092145
13	0xbe37c178	-0.17944896
14	0xbd1c0443	-0.03809
15	0xbd062f2f	-0.03275984
16	0xbda118e6	-0.07866077
17	0xbdf44bec	-0.119285434
18	0xbdb97e0f	-0.09057247
19	0xbe7ae481	-0.2450123
20	0xbd6e8399	-0.05823097
21	0xbda08e84	-0.07839683
22	0xbcf39f56	-0.029739063
23	0xbe42e8a4	-0.19034058
24	0xbd145d78	-0.03622195
25	0xbdf7c433	-0.12097969
26	0xbd93ada7	-0.07210856
27	0xbdc0fcd6	-0.09423225
28	0xbd4f0f1e	-0.050551526
29	0xbe7dbca2	-0.24778989
30	0xbdb6045e	-0.08887552
31	0xbc117dd7	-0.0088801
32	0xbdd72dea	-0.10506804
33	0xbd1a0eb4	-0.03761168
34	0x3c778114	0.015106458
35	0xbc1e8fb1	-0.009677813
36	0xbe269c87	-0.16270648
37	0xb960ff6f	-0.00021457461
38	0xbd95449b	-0.07288476
39	0xbccd6d79	-0.025076615
40	0xbe5a8690	-0.21340394
41	0xbdea4a05	-0.11439899
42	0xbdcb9b4b	-0.09941729
43	0xbe2a7dec	-0.16649598
44	0xbdcb5a69	-0.09929354
45	0xbe400a76	-0.1875399
46	0xbdf6dddb	-0.12054034
47	0xbd8e487f	-0.06947421
48	0xbdf1c48e	-0.11805068
49	0xbdf9ef34	-0.122038275
50	0xbe1348a2	-0.14383176
51	0xbdc6dcca	-0.09710081
52	0xbd933e8d	-0.07189665
53	0xbe168c33	-0.1470192
54	0xbcacbf54	-0.021087326
55	0xbd8a5898	-0.06755179
56	0xbd63d319	-0.05562124
57	0xbd8b786e	-0.068100795
58	0xbdcac4ed	-0.09900842
59	0xbdc5a58e	-0.09650718
60	0xbe1fee64	-0.15618283
61	0xbd5d0141	-0.053956274
62	0xbe092bd0	-0.1339562
63	0xbc08b105	-0.008342986
64	0xbe29be0b	-0.16576402
65	0xbdd48aa2	-0.103780046
66	0xbde35fee	-0.111022815
67	0xbe0e651f	-0.13905762
68	0xbe499be7	-0.19688378
69	0xbd8552c2	-0.065099254
70	0xbd8bf821	-0.06834436
71	0xbe6a94b4	-0.22908288
72	0xbde22cd9	-0.1104371
73	0xbdb99283	-0.09061148
74	0xbd728852	-0.059212036
75	0x3c802dca	0.015646834
76	0xbd60e3bb	-0.05490468
77	0xbd755f35	-0.05990525
78	0xbdd9c538	-0.106333196
79	0x3cc935cf	0.02456179
80	0xbdbb5c72	-0.09148492
81	0xbd3f1c03	-0.046657573
82	0xbd0a9e64	-0.03384246
83	0xbc11785f	-0.008878796
84	0xbdb4ce80	-0.08828449
85	0xbda538b6	-0.080674574
86	0xbb45efd6	-0.0030202768
87	0xbd902c0b	-0.070396505
88	0xbe2e2daa	-0.17009607
89	0xbe00e4f4	-0.12587339
90	0xbd17802f	-0.03698748
91	0xbdaa94f3	-0.08329191
92	0xbe34d411	-0.17659022
93	0xbdc5e847	-0.09663444
94	0xbe230cab	-0.15922801
95	0xbd2b113b	-0.04176448
96	0xbe2121c0	-0.15735531
97	0xbe18cb8f	-0.14921401
98	0xbdbf7761	-0.093489416
99	0xbe05a749	-0.13052095
100	0xbd7ea61c	-0.062170133
101	0xbc0474db	-0.008084501
102	0xbdeaeaec	-0.11470589
103	0xbd815ca9	-0.06316502
104	0xbdfc9ae7	-0.12334233
105	0xbd95a169	-0.07306177
106	0xbe36a6f0	-0.17837119
107	0xbdbde7da	-0.09272738
108	0xbe06f7e1	-0.13180496
109	0xbcafdfa4	-0.021468945
110	0xbe1983fb	-0.14991753
111	0xbddfbcf1	-0.109247096
112	0xbd94b109	-0.07260329
113	0xbdb8acf0	-0.0901736
114	0xbe387b23	-0.18015723
115	0xbe02b92b	-0.12765948
116	0xbc565282	-0.013081195
117	0xbde5b909	-0.11216933
118	0xbe487637	-0.19576345
119	0xbd88112c	-0.066439
120	0xbd7899ec	-0.060693666
121	0xbcbc59f3	-0.02299211
122	0xbe063088	-0.1310445
123	0xbce16252	-0.027512703
124	0xbe295691	-0.16536929
125	0xbd9128a4	-0.0708783
126	0xbd4d1c07	-0.050075557
127	0xbe20518f	-0.15656112
128	0xbdee0384	-0.11621764
129	0xbdc76851	-0.09736694
130	0xbd76b7b2	-0.06023378
131	0xbe0c6964	-0.13712078
132	0xbdd1c2d3	-0.10242238
133	0xbd655664	-0.05599059
134	0xbdd68469	-0.10474474
135	0xbe37a406	-0.17933664
136	0xbd91bd39	-0.071161695
137	0xbd230bd0	-0.039806187
138	0xbe2f2f32	-0.17107847
139	0xbdc686e6	-0.096936986
140	0xbdbe458a	-0.09290607
141	0xbd1108f9	-0.035408948
142	0xbcffe137	-0.03123532
143	0xbdf171c1	-0.11789275
144	0xbdd5826a	-0.10425265
145	0xbcb8eec8	-0.022574797
146	0xbe1c00a8	-0.15234625
147	0xbde4706b	-0.111542545
148	0xbe1e3f04	-0.15453726
149	0xbd9e696f	-0.077349536
150	0xbd60a6aa	-0.054846443
151	0x3be13c6d	0.0068736584
152	0xbde9d681	-0.114178665
153	0xbd1657d0	-0.03670484
154	0xbe153b20	-0.14573336
155	0xbe2172e0	-0.15766478
156	0xbd5ff759	-0.05467925
157	0xbdaf6702	-0.08564569
158	0xbe097bca	-0.13426128
159	0xbdd22796	-0.10261457
160	0xbe44f4ee	-0.19234058
161	0xbe00fa8a	-0.12595573
162	0xbcb14510	-0.021639377
163	0xbe7affff	-0.24511717
164	0xbe019356	-0.1265386
165	0xbe6947d5	-0.22781308
166	0x3d82e725	0.063917436
167	0xbde7462c	-0.11292681
168	0xbd885417	-0.06656664
169	0xbce3f084	-0.027824648
170	0xbda23294	-0.07919803
171	0xbd72833d	-0.05920719
172	0x3b67081a	0.0035252632
173	0x3c8647b9	0.016391622
174	0xbdac6b86	-0.08418946
175	0x3a95c1e5	0.0011425583
176	0xbd48f0a8	-0.049057633
177	0xbd54f0e4	-0.051987544
178	0xbd2bbd4e	-0.041928582
179	0xbd9db742	-0.07700969
180	0xbe4ff3ac	-0.20307797
181	0xbd45bcc0	-0.04827571
182	0xbe453080	-0.19256783
183	0xbd60fd2f	-0.054928955
184	0xbd4e201b	-0.050323587
185	0x3bba0da7	0.005677897
186	0xbc893679	-0.016749607
187	0xbdde4448	-0.10852867
188	0x3d119523	0.03554262
189	0xbdb695cb	-0.089152895
190	0xbdd4fb7b	-0.103995286
191	0xbcf3be1a	-0.029753733
192	0xbdf51f4c	-0.1196886
193	0xbd8ecb9a	-0.06972428
194	0xbe5ba916	-0.2145122
195	0xbd26f902	-0.040764816
196	0xbe0cd44f	-0.13752864
197	0xbe390cc3	-0.18071274
198	0xbdb74072	-0.08947839
199	0xbde72925	-0.112871446
200	0xbd4e918f	-0.050431784
201	0xbe6a6497	-0.22889934
202	0xbe4de933	-0.2010849
203	0xbdabe0bf	-0.08392476
204	0xbd1431f4	-0.03618045
205	0xbe1558ff	-0.1458473
206	0xbe015659	-0.12630595
207	0xbd59e2d1	-0.053194825
208	0xbd6e4b8a	-0.05817751
209	0xbdb231a5	-0.08700875
210	0xbd4a5d90	-0.049405634
211	0xbbc60008	-0.006042484
212	0xbc9ca7d7	-0.019123001
213	0xbd84082d	-0.06446872
214	0xbdf582d2	-0.119878426
215	0xbb1d7339	-0.0024024977
216	0xbd58e224	-0.05295004
217	0xbe1826fd	-0.14858623
218	0xbd1123bf	-0.03543448
219	0xbe0661b3	-0.13123207
220	0xbbe36825	-0.006939905
221	0xbde6d094	-0.11270252
222	0xbcdc85c0	-0.026919246
223	0xbe305474	-0.17219716
224	0xbe4a9268	-0.19782412
225	0xbdef2610	-0.11677182
226	0xbddd91b5	-0.10818807
227	0xbd02f351	-0.031970326
228	0xbde7f2c0	-0.11325598
229	0xbe3057a7	-0.17220937
230	0xbd8612d3	-0.06546559
231	0xbdf1c775	-0.118056215
232	0xbdf9f9c0	-0.12205839
233	0xbd4f8fae	-0.050674133
234	0xbd3cba2f	-0.046075996
235	0x3c8dccf6	0.017309647
236	0xbcbf246d	-0.023332799
237	0xbd9242a5	-0.07141618
238	0xbce75a4b	-0.028241297
239	0xbd83b13e	-0.06430291
240	0xbc659167	-0.014011717
241	0xbe1c0e32	-0.1523979
242	0xbe48bf63	-0.19604258
243	0xbdd3ed4d	-0.10347996
244	0xbe2d042a	-0.1689612
245	0xbd3c17a3	-0.04592098
246	0xbafd6e13	-0.0019335173
247	0xbe02c83d	-0.12771697
248	0xbd319989	-0.043359313
249	0xbcc96aff	-0.024587153
250	0xbd6ac04d	-0.0573123
251	0xbc0235df	-0.007947414
252	0xbdcef146	-0.10104613
253	0xbd47985f	-0.048729297
254	0xbe79a1a7	-0.24378072
255	0xbe0eddbf	-0.13951777

bn1.running_mean f4 [256]
0	0xbceeb84e	-0.029140618
1	0x3e43fc4c	0.19139212
2	0x3d19d3de	0.037555568
3	0x3e06693d	0.13126083
4	0x3ce6483d	0.028110618
5	0x3e0d0663	0.13771968
6	0xbe1a2158	-0.15051782
7	0xbdd3b496	-0.103371784
8	0xbdd9e3f4	-0.10639182
9	0xbde88313	-0.113531254
10	0xbd162444	-0.03665568
11	0xbcee0d46	-0.029059064
12	0xbe227d70	-0.15868163
13	0x3e8f63a5	0.2800571
14	0xbcc9e90b	-0.024647256
15	0xbe13fd6c	-0.14452142
16	0x3d883857	0.06651371
17	0xbdeaa176	-0.114565775
18	0xbdd5cfd1	-0.104400285
19	0x3cefa909	0.029255407
20	0x3dcbf19b	0.09958192
21	0x3e060a82	0.13089946
22	0x3d5d5c81	0.054043297
23	0x3e4a432f	0.19752191
24	0x3dd996a4	0.106244355
25	0xbdd9538a	-0.10611637
26	0xbd7906df	-0.06079757
27	0xbc5afb60	-0.0133655965
28	0x3e5dbc03	0.21653752
29	0x3da86b58	0.08223599
30	0xbc613ad2	-0.013746934
31	0xbc98bb02	-0.01864386
32	0x3e05e216	0.13074526
33	0xbc9c96a5	-0.019114802
34	0x3bab5ca4	0.0052295495
35	0x3ca566c3	0.020190602
36	0x3e56eca8	0.20988715
37	0x3ccd40c1	0.025055291
38	0xbe4b12bc	-0.19831365
39	0x3e12ac76	0.14323601
40	0x3d9c31a3	0.07626655
41	0x3d2c20a5	0.04202332
42	0x3db0ac6d	0.086266376
43	0x3e6f0b09	0.23344053
44	0x3b41fd98	0.0029600617
45	0x3e117e9f	0.14208458
46	0xbd940ab3	-0.07228603
47	0xbe2f4cc4	-0.17119128
48	0x3e83820e	0.2568516
49	0x3e931bf5	0.28732267
50	0x3de7caf0	0.11318004
51	0x3d833080	0.06405735
52	0xbcb70a28	-0.02234371
53	0x3e90a739	0.2825258
54	0x3e4eaa50	0.20182157
55	0x3eaaaa2b	0.33332953
56	0xbd685161	-0.056718234
57	0x3e65355a	0.22383633
58	0xbd3a89ac	-0.04554145
59	0xbd80a213	-0.06280913
60	0x3e1c22a4	0.1524759
61	0xbdfe96fe	-0.12431143
62	0x3e3d7229	0.1850058
63	0xbde121b6	-0.10992758
64	0x3e2410b1	0.16021992
65	0x3a56f77e	0.00082003314
66	0x3d8656e3	0.06559541
67	0x3d9f6685	0.07783226
68	0x3e2959fd	0.16538234
69	0xbe37ba76	-0.17942223
70	0xbdef1ab7	-0.11675017
71	0x3daae391	0.08344186
72	0xbd207ba3	-0.03918041
73	0x3d51800c	0.051147506
74	0x3e0cb263	0.13739924
75	0x3d3a1677	0.04543158
76	0xbdccd47d	-0.100014664
77	0x3e854673	0.2603031
78	0xbdf9eb4b	-0.12203082
79	0xbe2c2060	-0.16809225
80	0xbd2ba688	-0.041906863
81	0x3ce6f3b5	0.02819238
82	0xbb900be7	-0.00439595
83	0xbdd125ea	-0.1021231
84	0xbe7de8b0	-0.24795794
85	0xbd9c3940	-0.07628107
86	0xbcae89d5	-0.021305958
87	0x3df1e0a8	0.11810428
88	0x3cc423a1	0.02394277
89	0x3e703522	0.23457769
90	0x3e98fe7f	0.29881665
91	0xbeaf9e25	-0.34300342
92	0xbd2a28ff	-0.041543003
93	0x3ab4324f	0.0013747903
94	0x3da23447	0.07920127
95	0xbe327c3c	-0.17430204
96	0x3c7d5cf1	0.0154640535
97	0x3d532d09	0.05155662
98	0x3d8d6e58	0.06905812
99	0x3e0f486b	0.13992469
100	0xbbf3f386	-0.0074448017
101	0x3d2e2c98	0.042522997
102	0x3e2a17cc	0.1661064
103	0xbe9d6392	-0.3074003
104	0x3c874068	0.016510203
105	0xbdc5a058	-0.09649724
106	0x3dbb159d	0.09134982
107	0x3e10c456	0.14137396
108	0x3dcebf1e	0.100950465
109	0x3e26fc5d	0.16307206
110	0x3d9f945c	0.07791969
111	0xbe2a10df	-0.16607998
112	0x3d0eccd8	0.034863323
113	0xbe25528c	-0.1614477
114	0x3e2997f0	0.16561866
115	0xbd3579d7	-0.04430565
116	0xbd88b1c7	-0.06674533
117	0x3e33bd1f	0.17552613
118	0x3e3e5be0	0.18589735
119	0xbe4ded80	-0.2011013
120	0xbe022a1b	-0.12711374
121	0xbdd0a224	-0.10187176
122	0x3e0de2c2	0.13856032
123	0xbe7a292e	-0.24429771
124	0x3dc3e217	0.095646076
125	0x3eb935d1	0.3617387
126	0x3e14bdb0	0.14525485
127	0x3dfb1421	0.12259699
128	0x3ea2c9ad	0.3179449
129	0x3d7b06dc	0.06128584
130	0xbde7a9c8	-0.1131168
131	0xbd56c832	-0.052437015
132	0xbece5a59	-0.40303305
133	0x3d935c48	0.071953356
134	0x3cbf5281	0.02335477
135	0x3db54ef5	0.088529505
136	0xbe4674c9	-0.19380488
137	0xbe04a0c3	-0.1295195
138	0xbc8ed81d	-0.017437035
139	0xbdf5f077	-0.12008756
140	0x3d1756b1	0.03694791
141	0xbd2b2557	-0.041783657
142	0xbd440e82	-0.0478654
143	0xbcb584ea	-0.022158105
144	0xbd831c05	-0.06401829
145	0xbe065b4b	-0.13120763
146	0xbbe06fef	-0.006849281
147	0x3da69d32	0.081354514
148	0x3e3fd892	0.18734959
149	0xbd10fbba	-0.035396315
150	0x3d09f989	0.03368524
151	0xbe0e600b	-0.13903825
152	0xbc2eb037	-0.01066213
153	0xbd431fc3	-0.047637712
154	0x3e2deb9d	0.1698441
155	0x3d753cc5	0.059872407
156	0x3d973b5e	0.0738437
157	0xbd0d47dd	-0.034492362
158	0x3e620fa2	0.22076276
159	0x3e43c403	0.19117741
160	0x3ddc4405	0.10755161
161	0xbda3057e	-0.07960032
162	0x3d93bd6a	0.07213862
163	0x3e727a26	0.23679408
164	0x3e6b6f7f	0.22991751
165	0x3e232e0c	0.15935534
166	0xbdefee8f	-0.11715423
167	0x3e46442b	0.19361942
168	0x3e194bec	0.14970368
169	0xbe12b410	-0.14326501
170	0x3df1786c	0.11790547
171	0xbe5aaf03	-0.21355824
172	0xbdab0baf	-0.08351838
173	0xbe7abae8	-0.24485362
174	0xbddba8e2	-0.10725571
175	0xbd2f2cd3	-0.042767357
176	0xbda31c53	-0.07964387
177	0x3d2ec4c3	0.042668115
178	0xbca565bf	-0.020190118
179	0xbc384bbe	-0.011248527
180	0x3ce371cf	0.02776423
181	0x3d2a3ebc	0.041563734
182	0x3e08772d	0.13326712
183	0x3bc4d74b	0.0060071102
184	0x3b902bbf	0.004399746
185	0x3d552cfb	0.05204485
186	0xbd63cbb9	-0.055614207
187	0xbe846ad9	-0.25862768
188	0xbe1a4f6f	-0.15069364
189	0xbc8e8127	-0.017395569
190	0x3e2f9937	0.1714829
191	0x3e36209b	0.17785875
192	0x3e942871	0.28937104
193	0x3d910173	0.070803545
194	0x3d95e0eb	0.0731829
195	0x3abe0e34	0.0014500082
196	0x3e05fdf3	0.13085155
197	0x3e152959	0.14566554
198	0x3d5f0941	0.054452185
199	0xbdb57ab0	-0.088612914
200	0x3e5097ce	0.20370409
201	0x3cfe7aa2	0.031064335
202	0x3e8a4335	0.270044
203	0x3e1deb8d	0.15421887
204	0xbe33036f	-0.17481779
205	0xbd9783c3	-0.073981784
206	0x3dfcd34a	0.12344988
207	0x3dc7aedd	0.097501494
208	0x3e8510fc	0.2598952
209	0x3e2d0a3e	0.16898438
210	0x3da854a8	0.08219272
211	0xbd156315	-0.036471445
212	0x3e2ae8ce	0.1669037
213	0xbcf116e6	-0.029429864
214	0x3e3d64ae	0.18495438
215	0x3e36d04e	0.178529
216	0x3d8016ac	0.06254324
217	0x3e1daeea	0.15398756
218	0x3df0f7eb	0.117660366
219	0x3e05a660	0.13051748
220	0xbdbc8ec3	-0.09206917
221	0xbe1aff75	-0.15136512
222	0x3d5dae51	0.05412132
223	0x3dc61937	0.09672778
224	0x3dae758d	0.08518515
225	0x3db81aad	0.08989463
226	0x3e1f0e96	0.15532908
227	0x3dc84b42	0.09779979
228	0x3da18c74	0.078881174
229	0x3d260713	0.04053409
230	0xbe1ea13c	-0.15491194
231	0x3e809e90	0.25120974
232	0x3e24cadb	0.16093008
233	0xbd5e9331	-0.05433959
234	0xbd371264	-0.044695273
235	0xbe011975	-0.12607367
236	0x3bb0466f	0.00537949
237	0xbe805481	-0.2506447
238	0xbdbc6bac	-0.09200224
239	0x3d894672	0.067028895
240	0x3d8764ac	0.066109985
241	0xbcf1fc96	-0.029539388
242	0x3e27c285	0.16382797
243	0x3e0dd55e	0.13850924
244	0x3d9b3312	0.075781
245	0x3e3bb773	0.18331699
246	0x3eaa9c67	0.3332245
247	0x3e0000b1	0.12500264
248	0x3dea5ae5	0.11443118
249	0x3d49bb8a	0.049251117
250	0xbdb5fe94	-0.088864475
251	0x3e790e10	0.2432177
252	0x3c6b4930	0.014360711
253	0xbd1d0678	-0.038336247
254	0x3e7aff73	0.24511509
255	0x3d4dbcb8	0.050228804

bn1.running_var f4 [256]
0	0x3d2a684d	0.041603375
1	0x3d02bdf8	0.03191945
2	0x3d6659bc	0.05623792
3	0x3d114351	0.03546459
4	0x3d206dc0	0.039167166
5	0x3d6de821	0.058082704
6	0x3d886703	0.06660273
7	0x3d63861d	0.055547822
8	0x3d825ba5	0.06365136
9	0x3d0bef95	0.03416403
10	0x3da135a1	0.07871557
11	0x3d500e51	0.050794903
12	0x3ce1827d	0.027528042
13	0x3d34e7c0	0.044166327
14	0x3d268cbf	0.04066157
15	0x3d845c39	0.064629026
16	0x3d5c6f3d	0.053817023
17	0x3d9519ac	0.07280287
18	0x3d3a6ed2	0.045515843
19	0x3d802af1	0.062581904
20	0x3d714e44	0.05891253
21	0x3d1fe66a	0.0390381
22	0x3d7dd565	0.061971087
23	0x3d34abef	0.04410928
24	0x3cd98343	0.026551848
25	0x3d0eb025	0.034835953
26	0x3d60e520	0.05490601
27	0x3d4ae50b	0.04953484
28	0x3d35dfc2	0.044402845
29	0x3d342a8d	0.043985892
30	0x3d9378cd	0.07200775
31	0x3d0e9bb2	0.03481645
32	0x3d8bf461	0.06833721
33	0x3d3e3327	0.0464355
34	0x3d5bb12a	0.053635754
35	0x3d39ce7a	0.045362927
36	0x3d688362	0.05676592
37	0x3d95c964	0.07313803
38	0x3d28e779	0.041236375
39	0x3d38aa14	0.045084074
40	0x3d184d6b	0.037183207
41	0x3db1b01b	0.086761676
42	0x3d2d5d8f	0.042325553
43	0x3d53c6a4	0.05170311
44	0x3d076837	0.03305837
45	0x3d45c50b	0.048283618
46	0x3d87f51e	0.06638549
47	0x3d3f12b7	0.046648707
48	0x3d840edd	0.064481474
49	0x3d2c563e	0.042074434
50	0x3d24a2ab	0.040194195
51	0x3d804598	0.06263274
52	0x3d5b078b	0.05347399
53	0x3d2b555e	0.04182946
54	0x3d1c4bd8	0.038158268
55	0x3d85ff4e	0.06542836
56	0x3d3d2f3c	0.046187624
57	0x3d21f079	0.039535973
58	0x3d1337b6	0.035941802
59	0x3d823bea	0.06359084
60	0x3d8c690b	0.06855973
61	0x3d02547d	0.031818856
62	0x3d23f3ec	0.040027544
63	0x3d49d822	0.049278386
64	0x3d345571	0.044026796
65	0x3d0574d9	0.032582138
66	0x3d80c3f8	0.06287378
67	0x3d4a0b7f	0.04932737
68	0x3d98e33e	0.07465218
69	0x3d6278a2	0.055290826
70	0x3d473405	0.048633594
71	0x3d156711	0.036475245
72	0x3d0b0504	0.03394033
73	0x3d33f708	0.04393676
74	0x3d13c813	0.036079478
75	0x3d032b4f	0.032023724
76	0x3d916aa5	0.07100419
77	0x3d3dbd7f	0.046323296
78	0x3d0aad37	0.033856597
79	0x3d3530b0	0.044235885
80	0x3cf87124	0.030327387
81	0x3d7c7245	0.061632413
82	0x3d363860	0.044487357
83	0x3d471608	0.048604995
84	0x3d3fd83a	0.04683707
85	0x3d150924	0.03638567
86	0x3cbdf263	0.023186868
87	0x3d253c11	0.040340487
88	0x3d2810fa	0.041031815
89	0x3d1aa1d2	0.03775198
90	0x3d9fd82b	0.07804903
91	0x3d10fccb	0.035397332
92	0x3d27c6bf	0.040961023
93	0x3d82b821	0.06382776
94	0x3d8a9154	0.067660004
95	0x3d017c8a	0.03161291
96	0x3d2fe40a	0.042942084
97	0x3d368f24	0.044570103
98	0x3d350473	0.044193696
99	0x3d603653	0.054739308
100	0x3d7797d0	0.060447514
101	0x3d7f4cc6	0.062329076
102	0x3d1f315b	0.03886543
103	0x3d16e727	0.036841538
104	0x3d38789b	0.045036893
105	0x3d4eaa0e	0.050455146
106	0x3d805c53	0.062676094
107	0x3d432872	0.047645994
108	0x3d0b5614	0.034017637
109	0x3d53eead	0.05174129
110	0x3d70df4e	0.05880671
111	0x3d182546	0.03714492
112	0x3d5b26a2	0.05350364
113	0x3d24f3ff	0.040271755
114	0x3d0cd074	0.034378484
115	0x3d1a76e3	0.037711035
116	0x3d0a7099	0.033798788
117	0x3d7bf4c1	0.061512712
118	0x3d6ba2ec	0.05752842
119	0x3d38bef9	0.045104
120	0x3d0d18c1	0.034447435
121	0x3d2d5b42	0.04232336
122	0x3d3f0bd7	0.04664215
123	0x3d20edfb	0.039289456
124	0x3d140491	0.036137167
125	0x3d284ddf	0.04108989
126	0x3caad2df	0.020852504
127	0x3d2274a9	0.039662037
128	0x3d291d88	0.04128793
129	0x3d88aafd	0.066732384
130	0x3d05a1a7	0.032624867
131	0x3d5247dc	0.05133806
132	0x3cf03b20	0.029325068
133	0x3d5fea03	0.05466653
134	0x3d84d489	0.0648585
135	0x3dad35f6	0.08457558
136	0x3d2c9927	0.042138245
137	0x3d86157d	0.06547067
138	0x3d24d09b	0.040238004
139	0x3d6188cd	0.055062104
140	0x3d418a71	0.04725117
141	0x3d187ba6	0.037227295
142	0x3d4a333e	0.049365275
143	0x3d3a5db5	0.045499522
144	0x3d0ee9e2	0.034891017
145	0x3d1fdfdd	0.039031852
146	0x3d343375	0.043994386
147	0x3d29853b	0.041386824
148	0x3d326aec	0.043559
149	0x3d42811d	0.047486413
150	0x3d10540b	0.0352364
151	0x3d840a8b	0.064473234
152	0x3dba4d4c	0.090967745
153	0x3d7dfcbe	0.06200861
154	0x3d6356a0	0.055502534
155	0x3d0cc140	0.034363985
156	0x3cc5ed2b	0.024160942
157	0x3ccc8744	0.024966843
158	0x3d20a612	0.039220877
159	0x3d668ce2	0.0562867
160	0x3cf95bfd	0.030439371
161	0x3d20f1e9	0.039293204
162	0x3dadf4b9	0.08493943
163	0x3d8d93c2	0.06912948
164	0x3d056142	0.032563455
165	0x3d5dfebd	0.054198015
166	0x3d29b779	0.04143474
167	0x3d938b60	0.07204318
168	0x3d6c7800	0.05773163
169	0x3d441e76	0.047880612
170	0x3d71928c	0.05897765
171	0x3d311634	0.043234065
172	0x3d2bcc29	0.04194275
173	0x3cf2202a	0.029556353
174	0x3d283ebf	0.041075464
175	0x3c999ce6	0.018751573
176	0x3d2c176b	0.04201452
177	0x3d3fdfea	0.0468444
178	0x3d599c7e	0.05312776
179	0x3d5a2c8c	0.05326514
180	0x3d3df6b7	0.046377864
181	0x3d59e70e	0.053198867
182	0x3d25564b	0.0403655
183	0x3d3566e7	0.04428759
184	0x3d5a3e47	0.05328205
185	0x3d2fbc7a	0.042904355
186	0x3d930089	0.071778364
187	0x3d0de21a	0.034639455
188	0x3cfcef7e	0.030875918
189	0x3d423868	0.047417074
190	0x3d618543	0.05505873
191	0x3d8eb733	0.06968536
192	0x3d2cfced	0.042233396
193	0x3d4033e1	0.046924476
194	0x3d2a605b	0.041595798
195	0x3d57d08e	0.052689128
196	0x3d982f6d	0.07430921
197	0x3d2a9884	0.041649356
198	0x3d2b4be3	0.041820418
199	0x3d3b8941	0.045785192
200	0x3d1bcd28	0.03803745
201	0x3d167321	0.03673089
202	0x3d104f92	0.035232134
203	0x3d751eb9	0.059843753
204	0x3d7e1daf	0.062040027
205	0x3d730674	0.059332326
206	0x3d238d42	0.039929636
207	0x3d494b01	0.049143795
208	0x3da1eb17	0.07906168
209	0x3d9624b7	0.073312216
210	0x3d76ff48	0.06030205
211	0x3d49f4b9	0.04930565
212	0x3d51914b	0.051163953
213	0x3d0c3030	0.034225643
214	0x3d18ea40	0.037332773
215	0x3cc8d6fa	0.024516571
216	0x3d70d222	0.05879415
217	0x3e0b045e	0.13575885
218	0x3d8a5c7a	0.0675592
219	0x3d15441f	0.03644192
220	0x3d469380	0.04848051
221	0x3d30330b	0.04301743
222	0x3d763f7c	0.060119137
223	0x3d72f3b1	0.059314433
224	0x3d3b6b57	0.045756664
225	0x3d266850	0.040626824
226	0x3d56b4f7	0.052418675
227	0x3d14a35d	0.036288608
228	0x3cd526c4	0.026019461
229	0x3de1e408	0.11029822
230	0x3d14f216	0.036363684
231	0x3d2e0efe	0.042494766
232	0x3d74b673	0.05974431
233	0x3d4a13b2	0.04933519
234	0x3d2854cb	0.04109649
235	0x3d5042db	0.05084501
236	0x3d075fe1	0.03305042
237	0x3d2fc60f	0.042913493
238	0x3d85800f	0.06518566
239	0x3d435c6e	0.04769557
240	0x3d1535ad	0.036428142
241	0x3d2b10f2	0.041764207
242	0x3d782a90	0.060587466
243	0x3d0190ff	0.03163242
244	0x3d948726	0.0725234
245	0x3da7bc7d	0.08190248
246	0x3dba6ce1	0.09102798
247	0x3d0aaced	0.03385632
248	0x3d792803	0.060829174
249	0x3d96e2a3	0.07367446
250	0x3d61682e	0.055030994
251	0x3da23fed	0.07922349
252	0x3d345dd2	0.044034787
253	0x3d2638d5	0.040581543
254	0x3d267183	0.040635597
255	0x3d8be0e1	0.068300016

layer2.weight f4 [128, 256]
0	0x3cd4267f	0.025897263
1	0x3d6ac94c	0.057320878
2	0xbcb924d9	-0.022600578
3	0x3ccb5e58	0.02482526
4	0x3d06ec9e	0.0329405
5	0x3c8bdeab	0.01707395
6	0x3d26abbc	0.040691122
7	0xbd2bbd5e	-0.04192864
8	0x3d155140	0.03645444
9	0x3d62ed47	0.055402067
10	0x3c1233a4	0.008923445
11	0xbb4b9c4b	-0.00310685
12	0x3d3a087f	0.04541826
13	0x3d3922cc	0.0451992
14	0xbcc58676	-0.024111968
15	0xbdfb2388	-0.122626364
16	0xbc1dda66	-0.00963459
17	0xbcee11f1	-0.02906129
18	0xbbc9c13a	-0.0061570676
19	0x3d1c3eae	0.038145714
20	0x3d84d6f6	0.06486313
21	0xbd11bff5	-0.035583455
22	0xbdec522f	-0.11539113
23	0xbc23a5f4	-0.009988297
24	0x3d3a9dd4	0.045560673
25	0x3cd7160f	0.026255636
26	0x3ca6bcde	0.02035373
27	0xbd081f5b	-0.033233028
28	0xbc681bc5	-0.014166777
29	0xbd148e20	-0.036268353
30	0x3d809f8d	0.06280432
31	0xbc41323d	-0.011791763
32	0x3d6607e0	0.056159854
33	0x3cbac50c	0.022799037
34	0xbd7e3a53	-0.06206734
35	0x3c5f3494	0.013623375
36	0x3d0033f1	0.031299535
37	0x3c053914	0.008131284
38	0x3d49f5d2	0.0493067
39	0xbca0b25f	-0.019616304
40	0xbd90530c	-0.0704709
41	0xbbe55915	-0.006999145
42	0x393b5c38	0.00017868064
43	0x3d5375e7	0.051626112
44	0x3bca29ad	0.006169519
45	0x3bf71914	0.0075408313
46	0x3cda5901	0.026653768
47	0x3d85ea60	0.06538844
48	0xbcb15cb9	-0.021650659
49	0x3c6859dc	0.01418158
50	0x3ccd6503	0.02507258
51	0xbcea55ef	-0.02860543
52	0xbd501c4f	-0.050808247
53	0xbc541312	-0.012944
54	0x3d38f86a	0.04515878
55	0xbb94b2b9	-0.004537907
56	0xbc81d73f	-0.015849708
57	0x3d035567	0.032063868
58	0x3cbae343	0.022813445
59	0x3c68cf2d	0.014209551
60	0xbb92bdbb	-0.004478184
61	0xbd32bac0	-0.04363513
62	0x3d4eeb71	0.050517503
63	0xbbc9a69d	-0.006153895
64	0x3d91fb78	0.07128042
65	0x3c328bac	0.010897558
66	0x3c42d030	0.011890456
67	0x3d101ac2	0.03518177
68	0xbcd1c663	-0.025607293
69	0x3a43b27b	0.00074652553
70	0x3d24e23d	0.04025482
71	0x3b68023c	0.0035401722
72	0x3d864115	0.06555382
73	0xbd3861d3	-0.045015167
74	0x3d34e1c7	0.04416063
75	0xbcb9cb92	-0.022680078
76	0x3c96e443	0.01841939
77	0xbdbe4c53	-0.092919014
78	0x3c71f9c3	0.0147690205
79	0x3d4577e1	0.04821003
80	0x3db237d1	0.087020524
81	0xbcc40c5f	-0.02393168
82	0x3d87745d	0.066139914
83	0x3d88015d	0.06640885
84	0xbc557562	-0.0130284745
85	0x3dac1f1c	0.08404371
86	0x3da51e94	0.08062473
87	0x3db27d07	0.08715253
88	0xbae07718	-0.0017125336
89	0xbbd2d9f4	-0.0064346734
90	0x3d3fe066	0.046844862
91	0x3c22f14e	0.009945227
92	0x3d539672	0.051657148
93	0xba25fb1a	-0.00063316675
94	0x3d338d7d	0.043836106
95	0xbcbfed6e	-0.023428645
96	0x3b9f981a	0.004870427
97	0x3c7f5dbf	0.015586316
98	0x3d622524	0.0552112
99	0x3cd3c648	0.025851384
100	0x3d76e481	0.060276512
101	0xbc6a4ccb	-0.014300535
102	0x3d29f176	0.04149004
103	0xba530f89	-0.0008051326
104	0x3d8b293b	0.067949735
105	0x3d8af397	0.06784742
106	0xbc53c457	-0.012925229
107	0x3cb39afd	0.02192449
108	0xbd003fdf	-0.031310912
109	0xbc104fc1	-0.008808077
110	0x3d16f9a4	0.03685917
111	0xbcfc6e2f	-0.030814258
112	0x3cd82bfc	0.02638816
113	0x3cd75fdd	0.026290828
114	0xbbd1b73b	-0.0064000166
115	0xbca11d00	-0.019667149
116	0x3d859073	0.06521692
117	0xbdac6e97	-0.08419531
118	0x3d4e59d2	0.050378628
119	0xbd00234d	-0.031283665
120	0x3d64a7fd	0.05582427
121	0x3d7c0294	0.061525896
122	0x3c713b6c	0.01472364
123	0x3d5338d5	0.05156787
124	0x3dcaa9bc	0.098956555
125	0x3d36cc00	0.044628143
126	0xbd7d4f8a	-0.061843432
127	0x3c5a69d2	0.013330894
128	0x3d0106a1	0.031500462
129	0xbd5f183a	-0.054466464
130	0xbd26b8e2	-0.04070366
131	0x3a20a048	0.00061273994
132	0x3c9a6e22	0.018851344
133	0xbdbe9afc	-0.09306905
134	0x3c301229	0.010746517
135	0xbcf0c633	-0.029391384
136	0xbc7e29bd	-0.015512881
137	0xbcda856a	-0.026674945
138	0x3cd6789c	0.026180558
139	0xbc7b8009	-0.01535035
140	0x3d6b1d30	0.057400882
141	0xbc82c1e8	-0.015961602
142	0x3d9e85cb	0.07740363
143	0xbc77c6bd	-0.0151230665
144	0x3d851cda	0.064996436
145	0x3dc0c6ee	0.09412943
146	0xbc69e574	-0.014275897
147	0x3c7b7021	0.015346558
148	0x3d4da4eb	0.050206106
149	0xbd4eca0c	-0.050485656
150	0xbc928824	-0.017887183
151	0x3c9a7fc0	0.018859744
152	0xbb176b27	-0.002310464
153	0xbcc16a4e	-0.02361026
154	0x3d41c26c	0.047304556
155	0x3cde536d	0.02713939
156	0xbb047986	-0.0020214035
157	0xbc892fc3	-0.016746407
158	0x3bf6a6d3	0.007527211
159	0xbd0e69c8	-0.03476885
160	0x3c108ab6	0.008822134
161	0x3cfedab1	0.03111014
162	0x3d729eba	0.059233405
163	0xbd0be974	-0.034158185
164	0x3d7c1835	0.061546523
165	0x3d238aa0	0.039927125
166	0xbcccea3d	-0.025014037
167	0xbd7eb49e	-0.06218397
168	0xbc0c8ddd	-0.008578745
169	0xbd37d4a3	-0.04488052
170	0xbcdec917	-0.027195496
171	0xbbeae78b	-0.0071687154
172	0xba46e68c	-0.0007587455
173	0xbc48b5dc	-0.01225039
174	0x3ccc8148	0.02496399
175	0x3d45dd62	0.04830683
176	0xbd24494d	-0.040108968
177	0xbd0da885	-0.03458454
178	0x3d6503da	0.055911876
179	0x3d0f57dd	0.034995902
180	0x3d7ebb9b	0.062190633
181	0xbcbab833	-0.022792911
182	0x3d901d2c	0.07036814
183	0x3cf93da7	0.030424906
184	0x3dbc320e	0.09189235
185	0x3d942a88	0.07234675
186	0xbd8f2be0	-0.0699079
187	0x3d8f7e79	0.070065446
188	0x3d3324f4	0.043736413
189	0x3b849a0b	0.0040466837
190	0x3cf2898b	0.029606601
191	0x3bfb0ff5	0.0076618143
192	0x3cd51ce5	0.026014755
193	0xbd6980af	-0.057007488
194	0x3cfb7ba8	0.030698612
195	0xbd352ea4	-0.044233933
196	0x3d5f8dd1	0.054578606
197	0x3d9e980c	0.077438444
198	0xbd83ad3a	-0.06429525
199	0x3d46ebfe	0.048564903
200	0xbc9afc6a	-0.018919189
201	0x3d37829b	0.04480229
202	0x3dbfa098	0.09356803
203	0xbc84d84c	-0.01621642
204	0xbc3993c6	-0.011326736
205	0x3d13c9b0	0.036081016
206	0x3c409434	0.011754084
207	0x3c8fe0ff	0.017563341
208	0xbd3bf44a	-0.04588727
209	0xbd58fbc9	-0.052974496
210	0xbc143b93	-0.009047407
211	0x3ce4668c	0.02788093
212	0xbcafd20e	-0.021462467
213	0x3cac9430	0.021066755
214	0x3d819e27	0.06328993
215	0x3cf870c1	0.030327203
216	0x3d5eb0c0	0.05436778
217	0xbc58d1c7	-0.013233609
218	0x3d24ffe8	0.040283114
219	0xbb4b98bc	-0.0031066379
220	0x3d2b1aec	0.04177372
221	0x3cb80699	0.022464084
222	0xbdb04857	-0.08607548
223	0xbcef6f9c	-0.029228024
224	0xbccb4529	-0.024813252
225	0xbc5d155f	-0.013493865
226	0x3d3f7973	0.046746682
227	0x3cfd26c6	0.030902278
228	0x3c02850f	0.007966294
229	0xb9003e29	-0.00012230188
230	0x3c83f519	0.016108083
231	0x3d4ef1c8	0.05052355
232	0x3d38de8d	0.045134116
233	0x3d91cc58	0.071190536
234	0xbcdbbfc5	-0.026824841
235	0xbc0c73af	-0.008572503
236	0x3d5374df	0.05162513
237	0xbd17eff4	-0.03709407
238	0x3c312048	0.010810919
239	0xbd844ce1	-0.06459976
240	0xbc936540	-0.017992616
241	0x3d0e8ec4	0.03480412
242	0x3d405d17	0.046963777
243	0x3c905221	0.017617287
244	0xbcefb493	-0.02926091
245	0x3b57e2ab	0.00329415
246	0x3c306fdc	0.010768857
247	0xbcf3ed43	-0.029776221
248	0xbdb80b3f	-0.0898652
249	0xbc29fb94	-0.010374922
250	0x3b9982e8	0.0046847947
251	0xbc1db829	-0.009626427
252	0xbbac3772	-0.005255633
253	0x3d1145c2	0.035466917
254	0x3d38357d	0.044972885
255	0x3c4026f7	0.01172804
