3_model_training/neural_network_model.pth (torch, 265910 bytes, 26 tensors)

layer1.weight f4 [256, 72]
00000000: c5a4 293d ce01 893d e6fc f73c 52aa 123e
00000010: 3402 c53d 4672 c03d a758 643c 5098 2b3c
00000020: 8179 023e 789e 333d 7e13 b43d 72ed 6fbc
00000030: 3471 4fbc ba94 41bd 4aad 80bd a4cc 983c
00000040: 16b1 543d 60a1 ce3d a127 e33c e663 973d
00000050: af6a 6d3d f251 12bd 46a1 95bd 3882 a43d
00000060: d33f ab3d fb5f 4d3d 73a7 f3bb 7e6b 10be
00000070: 82e1 673c 6738 9fbb 098a 2d3d 4883 de3c
00000080: 22e4 2abd 11ab 5bbd 373b 833c 0f6d 6c3d
00000090: 0ac0 ccbc 7e6a 0ebd 85d8 523d 0a23 1d3c
000000a0: 2d19 b93d f2e1 c2bd b55c 483d 5f6a 8d3c
000000b0: 9395 b13c af94 adbd 319f 95bd 0f72 143d
000000c0: fc26 d33b e1fb 59bc a1d7 0b3d a9e6 94bd
000000d0: 4dbe b83c 28fb bd3d d6d0 dcbd 45d9 4fbb
000000e0: 4d19 93bd 53fb edbd 2f6c a43d 45d9 043d
000000f0: 464f ad3d 57fe e2bc 848a 97bd 377f ba3d
00000100: d915 193e 9e3b cebd 5f32 89bc 9971 27bd
00000110: 7869 b2b9 0e40 bcbc 4309 10be 5020 55bc
00000120: 4a8e 96bd d136 aebb 46dc c83d e242 e23d
00000130: 58ec 6c3d faf1 a13d 80f9 6f3c cd99 d1bd
00000140: 9938 41bd 7297 8b3d 6c63 a33d d3e2 8d3c
00000150: be37 b7bc c5e5 5c3b 9da2 b2bd 16a1 4cbd
00000160: b275 c73d 8183 5ebc ce48 a0bd 95cd 9ebd
00000170: ab1a 033d de58 2d3c 0283 02bd 0be0 87bd
00000180: 62ed 90bc bc05 a83d 641a 47bd 45a5 2fbd
00000190: 4428 7bbd a9ac af3d a7a8 f53b c9e7 cabc
000001a0: 34ed f7bd 46f2 353d a591 aabc 7601 89ba
000001b0: 31f7 cebb 220a ba3c db31 bbbd e2dd 08bd
000001c0: 10f8 5f3d f8b6 b5bc b509 2abd 74d9 f13d
000001d0: 4b14 353d cb55 b93d 048f 8abc a3eb 6cbd
000001e0: 58c1 ce3c 495d 8f3c 9d05 a0bd 99e8 80bd
000001f0: 4de8 0a3e c0fd 2dbb 3ae8 6c3d fddf bb3d
00000200: 3b23 ab3d 915a afbd 1a1e 2abd a11b 9d3d
00000210: 48b3 3b3d ff69 10be 04a3 b73c be88 603d
00000220: 68d9 0a3e 6e21 7d3d 0258 f83d def2 15be
00000230: 9099 9dbd 21af 33bd 5e48 b6bd 0c90 c1bd
00000240: b476 333d 5d7a 813c 79a2 9c3c e452 8c3d
00000250: 946e 70bd 3ec3 1cbc 4433 d4bd bfbf c43d
00000260: 38ca d63d 9e5d e63c 09c3 05bd 9c69 79bb
00000270: 96ca c2bd 503d 013e 6812 84bc 8037 8abd
00000280: 59ec ccbd 8342 993d 02b7 063d 2e05 27bd
00000290: 6b23 ffbc c8fd f7bc 010c e8bd 5382 a9bd
000002a0: 3350 a83d 04d5 53bd 455b 073d 4432 eebd
000002b0: eb84 453d 8a2f 37bd cd22 a03d 729e 69bc
000002c0: eb45 a53d 2016 df3c eaaf 12bd 6a35 5d3d
000002d0: be56 cc3d 1b26 bc3c b1e7 db3d 71e4 0f3e
000002e0: a2e4 65bd 73c5 a13c abec 99bb 9be2 da3d
000002f0: eeb7 d9bd f2cb 303d 7ee5 57bd 4117 2c3d
00000300: 583b 8ebd 3c35 c43d 59d5 a83d 821e 0b3d
00000310: 1c88 163b aeee 0dbd aa04 133d 8dea 823d
00000320: a336 a5bd f26c 4a3d f89b 8d3d 4cce 81bd
00000330: 157e 363d 3106 aabd 1150 d33d 1c65 24bb
00000340: 0502 ef3c a9c0 99bd 44ca 10bd 76b8 16be
00000350: 6ca7 513d 69af 933c c4b1 d7bd 8ddf c1bd
00000360: d7e4 80bd bb80 01bd 1d45 583c cbfd bcbd
00000370: cd4c 0a3e c146 bd3d ed81 e3bc a1d6 6abd
00000380: ed68 c8bd a1e3 9b3d 31cb 0b3e a20a 333d
00000390: 059e c23c 72b4 84bc 47f5 b93c c05f 45bc
000003a0: 3349 8e3d 37c0 3dbd 0a00 e7bc 94e7 1e3d
000003b0: 7af7 113c e4fd 253c f3a9 bcbd 6baf db3c
000003c0: 32b4 cb3c 6c95 b13d 2a3c c03d c629 2b3d
000003d0: 5f27 153c 3240 6bbb 37a3 0c3d 6c00 66bd
000003e0: 8177 e93d 8d7b 243c 703d 27be 2b77 e0bc
000003f0: a01c e7bd 2525 b43d b4a2 433d f9b7 0cbd
0.041416902 0.06689797 0.030271959 0.14322785 0.09619561 0.09396796 0.013937152 0.010473326
0.12741663 0.0438523 0.0879278 -0.014644014 -0.012661267 -0.047260977 -0.06283052 0.018652268
0.051926695 0.100893736 0.027728857 0.07392101 0.05796307 -0.03572268 -0.07306151 0.0803265
0.08361783 0.050140362 -0.007435733 -0.14103505 0.014152886 -0.0048590186 0.04236797 0.02716221
-0.04172147 -0.05362994 0.016019447 0.057721194 -0.024993915 -0.034769528 0.05147602 0.0095908735
0.09038005 -0.09515752 0.048916537 0.017262636 0.021677768 -0.08475625 -0.07305754 0.036241587
0.0064438563 -0.0133046815 0.034141187 -0.072705574 0.02255168 0.0927642 -0.1078202 -0.0031715196
-0.0718256 -0.11620202 0.08028447 0.032433767 0.08462386 -0.02770917 -0.07399467 0.091062956
0.1494974 -0.10069965 -0.016747652 -0.04087982 -0.00034029386 -0.022979762 -0.14066033 -0.013008192
-0.07351358 -0.005316593 0.09807639 0.11047913 0.057842582 0.079074815 0.014646888 -0.10234413
-0.047173116 0.06815995 0.079779476 0.017320072 -0.022365447 0.003370629 -0.08722422 -0.04995831
0.097392455 -0.013581158 -0.078263864 -0.077540554 0.032007854 0.01058027 -0.03186322 -0.0663453
-0.017691318 0.08204219 -0.048609152 -0.042882223 -0.061317697 0.08577854 0.0074969116 -0.024768727
-0.1210579 0.044420503 -0.020821402 -0.0010452706 -0.0063160886 0.02270991 -0.091403686 -0.03341473
0.05467993 -0.022181973 -0.041513164 0.11809054 0.044208806 0.09049567 -0.016913898 -0.05784191
0.025238678 0.017500537 -0.07813571 -0.062943645 0.13565178 -0.0026548952 0.057838656 0.09173582
0.08356329 -0.08562196 -0.041532613 0.076712854 0.045825273 -0.14102934 0.0224166 0.054817908
0.13559496 0.06179946 0.12126161 -0.14643428 -0.07695305 -0.043868188 -0.08900522 -0.09451303
0.043814376 0.015805418 0.019120442 0.06851748 -0.058699206 -0.009568034 -0.10361341 0.09606885
0.10487789 0.028120812 -0.032656703 -0.0038057333 -0.095112965 0.12621045 -0.016122058 -0.06748867
-0.10006017 0.07483389 0.032889374 -0.040776424 -0.031144818 -0.03027238 -0.113304146 -0.082768105
0.08218422 -0.05171682 0.033046026 -0.11630681 0.048222464 -0.04472307 0.07819138 -0.014258968
0.080699764 0.02723223 -0.035812296 0.054006018 0.09977482 0.022967389 0.10737551 0.14051987
-0.056126244 0.019747471 -0.0046974025 0.10687753 -0.10630785 0.043163247 -0.052709095 0.042014364
-0.06944913 0.09580466 0.08243818 0.03396464 0.002296931 -0.03465145 0.03589312 0.06392393
-0.08067062 0.049420305 0.06914514 -0.06338176 0.044553835 -0.08301962 0.10318006 -0.002508468
0.029175768 -0.0750745 -0.035349146 -0.14718804 0.051185057 0.018027978 -0.10531953 -0.09466467
-0.06293648 -0.031616908 0.013200072 -0.09228095 0.1350586 0.09242011 -0.027771914 -0.057333592
-0.09785638 0.07611776 0.1365173 0.043711312 0.02375699 -0.016199324 0.022699965 -0.012046754
0.069475554 -0.04632589 -0.02819826 0.03879507 0.008909101 0.010131333 -0.09212103 0.026817044
0.024866197 0.08671078 0.093864754 0.041787885 0.009103625 -0.0035896418 0.03433534 -0.056152746
0.11399747 0.010039222 -0.1633203 -0.027400574 -0.11284757 0.08796147 0.047762588 -0.034355137

layer1.bias f4 [256]
00000000: d26a dbbd eaa4 8ebb 97e6 85bd 5235 1ebd
00000010: 4fd3 03be 7bdf bdbd 06b4 433b b73b 9e3b
00000020: 07fe a83c f3b6 943d 8f34 16bd 8d82 233d
00000030: 45f1 e83d 0515 ebbd 9ab9 2a3d b774 96bc
00000040: 936c 8ebd 7095 ecbc 8ef2 87bd 546e dc3b
00000050: c478 a8bc ffd0 b4bd bd11 563d fd09 d0bd
00000060: 58f9 56bd a8de dcbd ca74 553b 79cd 79bd
00000070: 51c2 7dbd 0cb5 d5bc f745 a33c e1a3 a8bd
00000080: 12c8 22bd 04a6 f63d 8fde 5c3d f0a0 953c
00000090: 03dc 023e 84e2 c23c c193 a6bd 70cf 213c
000000a0: 1c12 d03d dc6f e63d 9a88 ac3d a37c 89bc
000000b0: 0adf a13c 498b 95bd 5b24 e33c 4877 6dbc
000000c0: db9c a53c 72b3 c9bd 8f9c d43d a842 9dbb
000000d0: 9129 83bb 2843 6a3c eb4b c03c c429 8fbc
000000e0: 11d5 dc3c b26a ee3d bffc a93d 2b6b 1abd
000000f0: 79ea 883d 63a4 24be ef83 913d f73d 063c
00000100: 61cc f03d d47e 823d d990 cf3c 88f1 28bd
00000110: 5c3b 89bb cecb 19bd 2273 593d cf06 93bc
00000120: 6ee4 d13d 2dfd cc3c f06e 0b3d b5fd 86bc
00000130: 32f3 8cbd 64ea ac3d 3e8d 023e ea01 9d3d
00000140: 1199 0abd 77ff 42bd f4aa 263d c230 84bd
00000150: 734f 623b 6e1d 73bd 2a15 87bd ac4a d6ba
00000160: ac4b 4f3d 9b03 aabd 691e 9f3b bf67 90bd
00000170: 2db6 133e 99b4 b1bd 077a 86bc 7ec7 ac3d
00000180: d19c b23d 22fa 4b3d 0a53 d3bd 1005 133d
00000190: 2881 46bd 46c3 613d 3535 993d 2d89 0b3d
000001a0: 3f73 c2bd 28c6 2abd 4d6c 663c dd03 e33d
000001b0: 7dc0 df3d 0a8b 033d 4821 393d 59f3 2e3d
000001c0: 87e8 023e 6261 fa3c 0a33 d9bd df4a e53d
000001d0: 3b7d 51bd 79a8 f63c 4484 063c 9b71 93bc
000001e0: a729 c8bd 0bb8 97bd 063f b1bd e7d2 f8bc
000001f0: 1c25 87bd 5008 903c 918e 89bd 80c2 cf3d
00000200: 6e68 883c 761b d03c 0978 68bd eb61 1cba
00000210: e2f7 823d ebc7 cf3d 7ffb a7bd bcaf e83d
00000220: 3c62 9cbd 98af 903c 435a 82bc 94a2 babc
00000230: 4ada 18bd 7b1e 04be 1fd4 4b3d 5d2d c6bd
00000240: 3cdc eb3d 1ebe d23d 8c76 d3bd ae5a da3c
00000250: 3327 b83d 2178 f73d 7b30 61bd 3e1a 0d3e
00000260: 9cb8 313d cc7e bf3d 1334 50bd e861 4abd
00000270: 42d1 0fbd 0f12 5c3d d402 343d d4d0 cc3d
00000280: 5fd2 ea3d 925a 21bc e651 7dbd 4d52 31bd
00000290: 01bd 3f3d b996 9f3d 1a6b 00be a572 bd3d
000002a0: 5b0e 89bd a093 ecbc eb07 b0bb dd1d a63d
000002b0: 6730 323d 518c 67bd 0259 f9bd 4986 e63d
000002c0: fda8 783c 9db6 cabd 9c66 a9bd 535f 2b3d
000002d0: 1578 39bc c761 94bd d97c 1a3d e80a 2fbd
000002e0: 842e 353d 98c4 b5bd cb16 843d e7aa 77b9
000002f0: 9540 d03c bff1 aeb9 e3e6 24bd 4629 ae3d
00000300: 657c acbc 6cc7 c63a 6af0 163d 03e3 aabd
00000310: c236 0fbd 0830 b33c c66b 0fbc 8c0b 7b3d
00000320: 5658 65bc d09d c2bd d431 243c 9e8f e0bd
00000330: 9ecf 97bd 803d d9bd 3797 0cbe 6f5c f73c
00000340: b398 5bbd 302f fabb 743e cb3d 7aab fc3c
00000350: 6f1e cbbc cc8c d6bd e155 883d d1e0 d7bd
00000360: 9e66 04bd dd6a 923d 61a6 b1bd ec6a af3d
00000370: 9d31 24bd f884 a1bc ad1c 023e e19e fd3d
00000380: dbaa 813d 6a2e ac3c dbf9 723d c4b9 23bd
00000390: c4e3 1d3d 7799 91bd d5c2 95bd 753c 173d
000003a0: dbae 55bd 976b 02bc 8fa4 e63d 0e0a 873d
000003b0: 2517 053d 5b38 3b3d 0c24 14bd d672 95bd
000003c0: 9c28 10bd 75da fb3d ec3a 0e3e 725f 00bd
000003d0: 38f7 3b3d 9a8e 4e3d 7f3f e3bb 4ae9 9b3d
000003e0: fceb 3c3d c7a0 453d 10bd 0dbb d7e7 c2bd
000003f0: 79c5 89bd 66a6 db3d ba9c 81bd 5ec1 d43c
-0.10713734 -0.0043531554 -0.06538122 -0.03862507 -0.12873577 -0.09271141 0.002986194 0.004828896
0.020628942 0.07261457 -0.036671218 0.039919425 0.113741435 -0.114786185 0.04168091 -0.0183662
-0.06954303 -0.028879851 -0.066380605 0.0067270193 -0.020565398 -0.08828925 0.05226301 -0.10158155
-0.052483886 -0.10784656 0.0032570832 -0.06098697 -0.061952893 -0.026087306 0.019930823 -0.082343824
-0.039741583 0.12043384 0.053923186 0.018265218 0.1277924 0.023789652 -0.081336506 0.009876117
0.10159704 0.11251804 0.08424492 -0.016783064 0.019759674 -0.07301957 0.027727297 -0.014493771
0.020216396 -0.098486796 0.10381424 -0.004799206 -0.004002758 0.014298238 0.0234737 -0.01747597
0.026957067 0.11641444 0.083001606 -0.03769986 0.06685347 -0.16078334 0.071052425 0.0081934845
0.11757732 0.06371847 0.025337623 -0.041245967 -0.0041879844 -0.03754788 0.053088315 -0.017947583
0.10248648 0.025023067 0.034041345 -0.016478399 -0.06882323 0.08443144 0.12749192 0.07666381
-0.03383738 -0.04760691 0.040690377 -0.06454612 0.0034532219 -0.05935424 -0.065958336 -0.0016349158
0.050609276 -0.08301469 0.00485592 -0.07051038 0.14424963 -0.086770244 -0.016415609 0.084364876
0.087213166 0.049799092 -0.10318573 0.0358935 -0.048463017 0.055117868 0.074808516 0.034066368
-0.09494638 -0.041692883 0.014063907 0.11084721 0.10925386 0.03211502 0.045197755 0.042712543
0.12784015 0.030564014 -0.10605438 0.11195921 -0.05114482 0.03010963 0.0082102455 -0.017998507
-0.097735696 -0.0740815 -0.08654599 -0.030374004 -0.06598875 0.017582089 -0.067166455 0.1014452
0.016651358 0.02540372 -0.0567551 -0.00059655186 0.06394936 0.10145553 -0.08202266 0.11361644
-0.07635924 0.017661855 -0.01591218 -0.022782601 -0.03731755 -0.12902252 0.04976284 -0.09676621
0.11516616 0.10290168 -0.103253454 0.026654568 0.08991852 0.1208346 -0.054977875 0.13779542
0.043388948 0.093503565 -0.05083091 -0.049409777 -0.035111673 0.05372816 0.04394801 0.10000768
0.11465906 -0.009848254 -0.061845683 -0.04329138 0.046811108 0.0779242 -0.12540856 0.09250382
-0.06692191 -0.028878987 -0.0053720376 0.08111165 0.04350319 -0.0565303 -0.1217518 0.112560816
0.015177009 -0.09898112 -0.08271524 0.041838955 -0.011320134 -0.07245212 0.03771672 -0.04273501
0.044233814 -0.08875388 0.0644966 -0.00023619422 0.02542142 -0.0003336798 -0.040259253 0.08503966
-0.02105541 0.0015165634 0.03685037 -0.0834408 -0.03496433 0.021873489 -0.0087537225 0.06129031
-0.013998112 -0.095027566 0.010021646 -0.10964893 -0.07412647 -0.10607433 -0.13729559 0.030195443
-0.053612422 -0.0076350197 0.09924021 0.030843485 -0.024794785 -0.104760736 0.06657005 -0.10540927
-0.032324426 0.07149289 -0.086743124 0.085653156 -0.040086377 -0.019716725 0.12706251 0.12383819
0.06331416 0.021018226 0.059320312 -0.03997208 0.038547292 -0.07109349 -0.07312552 0.03692289
-0.05216871 -0.007960222 0.11261856 0.06593715 0.032492775 0.04570804 -0.03616719 -0.07297294
-0.035194978 0.12297527 0.13889664 -0.031341024 0.045890063 0.050428964 -0.0069350596 0.07612856
0.04612349 0.048249032 -0.0021627583 -0.09516876 -0.06727118 0.10725097 -0.06328721 0.02597111

bn1.weight f4 [256]
00000000: 557b 783f 8992 743f 0bb3 7f3f d133 803f
00000010: ad9c 813f 2b2f 643f 4f21 613f 41dd 7a3f
00000020: e754 813f b4a7 6d3f df27 743f 8d6e 683f
00000030: 7dac 803f 008a 703f eff5 773f 2f63 7b3f
00000040: 9c53 863f 2fc8 7c3f 7fe2 6c3f 8dd3 733f
00000050: 5f22 823f f6e3 763f 9889 6e3f 4d3b 693f
00000060: 41af 833f 69a6 713f bf6e 783f ce8d 813f
00000070: a2d7 7a3f 8ee0 8b3f c58a 6e3f f10b 6c3f
00000080: 4c53 8a3f 7001 7d3f ce09 773f 6538 7a3f
00000090: 2569 7c3f 7f40 843f 48d4 6a3f 286e 873f
000000a0: 7c1e 843f 23df 833f 318b 7e3f 92e0 7d3f
000000b0: e66b 813f 5475 823f 3b7d 7a3f a9a5 713f
000000c0: a34b 753f 2aa3 8c3f 8e5a 703f ef19 883f
000000d0: a610 853f 69c3 733f 30f0 813f d39f 843f
000000e0: 07fc 713f e31c 723f 2796 733f 2923 7e3f
000000f0: 081d 853f 965b 843f aee6 843f 2c0f 873f
00000100: 1584 753f 4065 843f 9149 7a3f 0adf 603f
00000110: 79ab 813f 4fe7 7b3f 31be 803f 2a07 7c3f
00000120: 5601 803f 93be 803f abb9 843f 98b8 843f
00000130: 5235 803f 87da 783f e9ca 8b3f 6167 873f
00000140: 921a 643f 08c7 6e3f a256 813f 6f93 7b3f
00000150: 4d38 723f d4b3 7e3f 3b40 813f c1c0 6e3f
00000160: 3f06 823f 7a57 783f cea3 753f 1c11 843f
00000170: 8862 7a3f 1ef5 6e3f ce75 8a3f 4138 803f
00000180: ab6d 783f 14c1 873f 19ab 803f e305 633f
00000190: ded7 823f aac5 803f a3fc 803f bf88 813f
000001a0: 7dbd 873f 6f15 833f 4b1b 723f 7be8 7c3f
000001b0: a978 6f3f 392b 843f 3239 803f 8514 743f
000001c0: 945d 833f fb20 6e3f 0d20 813f 454c 683f
000001d0: 10c8 7e3f 020a 833f bcd2 803f 7c32 693f
000001e0: 630a 773f 4316 823f 75d4 783f 2255 793f
000001f0: 1524 763f 0cb0 7f3f 791b 6b3f e375 843f
00000200: a574 763f c96a 7c3f a951 7e3f df04 843f
00000210: f204 613f 475b 863f f45d 853f 23d8 7e3f
00000220: 6d39 873f 79cf 783f a368 7e3f 71e2 783f
00000230: c906 7d3f 7a42 6a3f 6c41 6c3f 3930 6f3f
00000240: f87b 6f3f 7629 723f f3a6 853f 653e 793f
00000250: 7ab3 833f 5055 813f 39bf 7d3f 6bc2 7e3f
00000260: 7922 883f 49a4 6f3f e8b4 7d3f e4fc 723f
00000270: bca2 833f dfc3 723f a2e5 803f 6bce 723f
00000280: af8f 883f d6a5 7e3f acb9 783f 7d3b 853f
00000290: b772 6b3f 5d77 713f 03a5 773f 1f8f 6f3f
000002a0: b274 6c3f 1b41 823f dd4d 873f 6531 793f
000002b0: 0a01 733f 165f 733f 12e2 5c3f cccc 7b3f
000002c0: 0f03 733f 3b83 883f cffe 763f 92de 833f
000002d0: 2cb2 7c3f a945 833f 49ee 733f bb40 6d3f
000002e0: 1920 6b3f 0165 8b3f e9e7 6b3f d439 7a3f
000002f0: cbf1 813f 3abe 7e3f fd61 793f abac 853f
00000300: 888b 7c3f ece8 7f3f 917e 723f ede3 833f
00000310: 2e2a 813f db2c 7f3f 4efc 7d3f e3f5 883f
00000320: 4962 723f d333 833f c6a9 773f f0af 853f
00000330: dc84 803f 963a 823f e65c 793f 7516 733f
00000340: d24d 7b3f f3be 823f b9f4 7b3f 71df 7d3f
00000350: eab0 7a3f fc73 803f c632 863f a9af 833f
00000360: b341 833f ded6 7f3f 1d97 6b3f 8896 773f
00000370: ad28 783f a8fb 7e3f 04b2 843f 433e 693f
00000380: c4e9 6b3f d604 853f 2637 813f 32f2 803f
00000390: 0932 6c3f 56a7 723f 92fc 8d3f ee38 6a3f
000003a0: 23a7 7c3f afb8 813f b3ad 7a3f 4d7e 7c3f
000003b0: 2cc3 813f 3bde 813f 183e 7d3f 7876 813f
000003c0: 31d9 7b3f ead5 813f 06ca 753f 3a0a 803f
000003d0: 61e1 7e3f f7d9 683f 3ad0 713f 0ff0 8b3f
000003e0: d7c2 823f d091 6d3f a4f2 793f 4d40 7f3f
000003f0: e4a4 893f 20e3 753f c528 663f bf6c 843f
0.9706319 0.95536095 0.9988257 1.0015813 1.0125939 0.8913447 0.8794145 0.97993857
1.0104035 0.9283402 0.9537334 0.9079369 1.0052639 0.9396057 0.9685964 0.9819822
1.0494266 0.98742956 0.92533106 0.95244676 1.0166739 0.9644159 0.931787 0.9110611
1.0287858 0.94394547 0.97043985 1.01214 0.9798528 1.0927904 0.93180496 0.9220572
1.080667 0.9883032 0.96499336 0.977423 0.9859794 1.0332183 0.91730165 1.0580492
1.0321803 1.0302471 0.9943114 0.9917079 1.0111053 1.0192056 0.97847337 0.943934
0.9581854 1.0987294 0.93888175 1.0632914 1.0395706 0.9522005 1.0151424 1.0361274
0.9452519 0.9457533 0.9515099 0.992724 1.0399485 1.034045 1.0382898 1.0551505
0.95904666 1.0343399 0.97768503 0.8784033 1.0130454 0.98399824 1.0058042 0.9844843
1.0000408 1.0058159 1.0369161 1.0368834 1.0016272 0.97208446 1.0921298 1.0578424
0.89103043 0.9327245 1.0104563 0.9827184 0.9461716 0.99493146 1.0097727 0.9326287
1.0158156 0.9700848 0.9595307 1.0317721 0.97806597 0.9334277 1.0817201 1.0017167
0.9704234 1.0605798 1.0052215 0.8868086 1.0222127 1.0060322 1.0077099 1.0119857
1.0604702 1.0240916 0.94572896 0.9879224 0.9354349 1.032569 1.0017455 0.9534381
1.0262933 0.93019074 1.0087906 0.9074138 0.9952402 1.0237429 1.0064311 0.9109266
0.96500224 1.0163044 0.97199184 0.9739553 0.96148807 0.99878 0.91838795 1.0348476
0.96271735 0.9860044 0.99343354 1.0313987 0.8789817 1.0496606 1.0419297 0.9954855
1.05644 0.9719158 0.9937841 0.9722052 0.9883848 0.91507685 0.92287326 0.93432957
0.93548536 0.94594514 1.0441574 0.9736083 1.0289147 1.010416 0.9911991 0.9951541
1.063552 0.93610054 0.99104166 0.9491713 1.0284038 0.94830126 1.0070078 0.9484622
1.0668849 0.99471796 0.9715831 1.0408779 0.91971916 0.9432276 0.9673616 0.9357776
0.9236556 1.0176119 1.0570637 0.97340995 0.9492346 0.95066965 0.86282456 0.9835937
0.9492654 1.0665048 0.9648256 1.0302298 0.9870937 1.0255634 0.9528547 0.92676896
0.9184585 1.0890199 0.9215074 0.9774449 1.0151914 0.9950901 0.97415143 1.0443319
0.9865041 0.99964786 0.94724375 1.0303932 1.0090997 0.9967782 0.9921311 1.0700039
0.9468122 1.025019 0.9674343 1.0444317 1.0040545 1.0174129 0.97407377 0.9495614
0.9816562 1.0214523 0.9842029 0.9916907 0.979262 1.0035396 1.0484245 1.0287982
1.0254425 0.99937236 0.92027456 0.9671407 0.96937066 0.99602747 1.0366826 0.9111063
0.92153573 1.0392101 1.0094955 1.0073912 0.9226385 0.94786584 1.1092703 0.9149312
0.9869253 1.0134486 0.97921294 0.9863022 1.0137687 1.0145944 0.9892287 1.0114279
0.9837828 1.0143406 0.9601139 1.0003121 0.9956265 0.9095759 0.94458354 1.0932635
1.021571 0.9280062 0.97635865 0.9970749 1.0753446 0.9604969 0.8990596 1.0345687

bn1.bias f4 [256]
00000000: 1690 85bd 3bef 7fbd 4f26 3ebd 8349 11be
00000010: 84eb 21bc 25e5 82bd cf99 c6bd 3d67 96bd
00000020: ca02 4cbd 6414 8abd 01f5 5abd 9560 8ebd
00000030: 3624 e5bd b721 a8bc 2a0c 51bd 4684 fdbc
00000040: a3b4 2a3d 2b83 2ebd 7edd 5cbd c51e 62bd
00000050: 2df5 afbd b579 27bd 38da 99bd d6cb a8bd
00000060: c5f3 68bc 3df8 19bd f7de 6fbd 3755 c3bc
00000070: afbb a6bd 4a0b f6bd 9c3e c9bd 4a53 68bd
00000080: 873b 55bc 8f9a c9bd 275b aabd 97a2 38bd
00000090: c0c9 f1bc 0835 9ebc d56f 9ebd 5bea 4a3d
000000a0: 3cc4 55bd 2c17 63bc 3172 97bc 1277 f7bc
000000b0: efda edbc 0ef3 bfbd 5245 62bd 88ac 2fbd
000000c0: 6721 0ebd 6763 1ebe 87a7 23bd 078d ccbd
000000d0: cbae 07be e6fc 41bd 45d5 73bd 0138 f8bb
000000e0: 39d6 79bd ff38 63bd c9cf 26bd a0dc e6bc
000000f0: 0b58 a0bd d424 5cbd e559 633c 5a00 b7bd
00000100: f6b0 76bd 1e6b 44bd ed38 ccbc 8b6e c0bd
00000110: 603f 83bd 69ae 5dbc dbfa 4abc cffc aabd
00000120: f0a2 4dbd 049f bfbc 116c 98bd ab4a 8fbd
00000130: bb8b e6bd 2bc9 91bc 165e 49be f5a8 093d
00000140: e5dd b0bd da33 9bbd 2d4d b2bc 9adc 35bc
00000150: 84f7 9dbd 550d 69bd f21a 84bd 7f8d 6cbd
00000160: c438 0ebe d397 90bc d4dc f1bc 219b 203d
00000170: d0c6 98bd b9b5 2ebd 5687 b6bd 47f9 7dbc
00000180: bce5 4abd 8f32 18be a562 88bd 9c27 d6bd
00000190: b528 823d e9f3 c2bc 869f 36bc 31ee c0bd
000001a0: 34fe 5abd 52bf 51bd 3865 9cbd be5b 6abc
000001b0: 1c10 abbd affa 63bc 1cae a6bb ffee 90bd
000001c0: 22e9 ab3c f2e2 7ebd 72af e9bd 6a84 b5bd
000001d0: 212d 02be e278 cfbb fbe4 cf3b 0906 97bd
000001e0: 5455 84bd dad0 9fbd b3b7 a8bd d078 40bd
000001f0: 3e86 40bd 09db 65bd 4c3a abbd 0962 13bd
00000200: 739a 96bd 0612 66bd 05b6 2b3a 4063 8cbc
00000210: 7428 c3bd 8e5e aabd 260b bcbd a299 123d
00000220: a8dd 00be 9344 9bbc abd0 18bd 9c39 06bd
00000230: 3d8d e6bc 4505 96bd 3dc1 b5bd 176c 61bd
00000240: 6fa2 6fbd 9cc1 5abd d50d 05be 8d49 35bd
00000250: b6ae 2cbe 2447 10be 1017 0dbd 4ffa 55bc
00000260: 3bad d1bd d271 1cbd d438 4ebd 7bfb 10bd
00000270: 37c0 a1bd 254d c2bc 4b64 e3bc 24bd 9cbd
00000280: a620 fcbd 964d b2bc ff8c ddbd 109a 373c
00000290: 4a7b dcbd b401 9ebd f518 d3bd e60a 8ebd
000002a0: 1c05 b9bd 97cd 95bd 6624 17bd bd2c 6dbc
000002b0: e55a c6bd 16ae 77bd b053 f6bd 7f7b 01bd
000002c0: 72df 33bd 5ef5 61bc d355 5fbd e803 11be
000002d0: e609 b5bd 0f33 133c 20f1 bdbd c92a 8abd
000002e0: 625a 9ebd 0884 9c3d 2ea2 91bd c996 3ebd
000002f0: 089f 3cbd 994c cfbd acc6 4a3c f141 a33c
00000300: 5ba5 7dbd 9469 22bd 714a 67bd 6873 35bd
00000310: c321 f9bb b0f6 9ebd 6c6c 5bbc 8d04 d33c
00000320: b859 91bd a13d b2bd 805d 23bd 60bf 59bd
00000330: e5ae 94bb 7ea2 52bd 87c9 02bd 934d 1dbd
00000340: 5553 aebc 1f54 a4bc 7241 44bc 80d3 71bc
00000350: 065e 43bc d976 6fbc 3522 b93c 697d f4bd
00000360: 9abe 52bd deb6 1dbd 6f11 7abd c390 40bd
00000370: bbd3 71bd 666f 22bd cbb2 afbd ab43 abbd
00000380: 772d 5bbd 69aa 8e3b 70ec c5bc da13 69bd
00000390: 9df8 7bbd 9de6 16bd afb7 92bd 645d b1bd
000003a0: 87de 2abd d099 9abd 5d44 23bd 41c8 20bd
000003b0: 4d55 3bbc 516d 3bbd 1dc4 bfbd c226 633b
000003c0: ae6a d5bc e543 3ebd ccb9 2cbd 14e4 fcbc
000003d0: 19c9 2bbd 80e7 a6bd f16a 48bd 0a59 04be
000003e0: ad62 11bd 9b00 aabd 0640 bb3b 5536 acbd
000003f0: cd14 a6bd 5817 72bd e8f7 a4bd b79c ef3c
-0.06521623 -0.062484007 -0.046423253 -0.14188199 -0.009882811 -0.06391362 -0.096973054 -0.0734391
-0.049807347 -0.067421705 -0.05345631 -0.06952015 -0.11188547 -0.020523889 -0.05103699 -0.030946862
0.041676175 -0.04260556 -0.05392217 -0.055205125 -0.085916854 -0.040887553 -0.07512325 -0.082420036
-0.014218275 -0.037590254 -0.058562245 -0.023844345 -0.081412666 -0.12013872 -0.09826395 -0.056720056
-0.013014681 -0.09843933 -0.08318167 -0.045076933 -0.029515147 -0.019312397 -0.07736174 0.049539905
-0.052189097 -0.013860505 -0.018487068 -0.030208144 -0.02903506 -0.09372531 -0.05524189 -0.042889148
-0.034699824 -0.15467606 -0.03995469 -0.09987836 -0.13250272 -0.047360323 -0.05952956 -0.0075750356
-0.060995314 -0.055474278 -0.040725503 -0.028181374 -0.07829293 -0.05374606 0.013876413 -0.08935614
-0.060227357 -0.047953717 -0.024929488 -0.093960844 -0.06408572 -0.013530352 -0.01238891 -0.08349001
-0.050204217 -0.023391254 -0.07442487 -0.06996664 -0.1125712 -0.01779612 -0.19664797 0.033608396
-0.08636073 -0.07578249 -0.021765316 -0.011099959 -0.077132255 -0.05689748 -0.06450452 -0.05775213
-0.13888842 -0.01765052 -0.029524244 0.039210442 -0.074597955 -0.042653773 -0.08912532 -0.015501327
-0.049535498 -0.14863037 -0.0665944 -0.10456774 0.063554205 -0.023797946 -0.011146432 -0.094204314
-0.053465083 -0.051207848 -0.076364934 -0.0143041 -0.08352682 -0.013914748 -0.0050866734 -0.07076835
0.02098519 -0.06222815 -0.11410417 -0.088631466 -0.12712528 -0.006331549 0.0063444353 -0.07374198
-0.064615875 -0.07803507 -0.08238163 -0.046990216 -0.047003023 -0.05611709 -0.083607286 -0.035982165
-0.073536776 -0.056169532 0.00065502553 -0.01713717 -0.095292 -0.08318816 -0.09181814 0.035791047
-0.12584555 -0.018953597 -0.037308376 -0.032769784 -0.02814352 -0.07325224 -0.08874748 -0.055034723
-0.058504518 -0.053407297 -0.12993558 -0.044259597 -0.16863522 -0.14089638 -0.034445822 -0.0130601665
-0.10238119 -0.038194485 -0.050347164 -0.03539608 -0.0789799 -0.023718426 -0.027757784 -0.07653263
-0.12310915 -0.021765511 -0.108179085 0.011206165 -0.10765703 -0.077151686 -0.103074946 -0.069356725
-0.09034178 -0.07314604 -0.036899947 -0.0144759985 -0.096853055 -0.060468756 -0.12027681 -0.031611916
-0.043914266 -0.01379141 -0.054525208 -0.14161646 -0.088397786 0.008984341 -0.092745066 -0.06746442
-0.07732083 0.076423705 -0.071110114 -0.04653052 -0.0460501 -0.10122032 0.012376469 0.019928904
-0.061925273 -0.03965147 -0.056467477 -0.044299513 -0.0076029017 -0.07761896 -0.013392549 0.025759006
-0.070971906 -0.08703161 -0.03988409 -0.053161025 -0.0045374506 -0.051424496 -0.031930473 -0.03840406
-0.02127997 -0.020059643 -0.011978494 -0.014759898 -0.011924272 -0.014615738 0.022599319 -0.119379826
-0.051451303 -0.038504474 -0.061051782 -0.047013056 -0.059039813 -0.03965702 -0.08579024 -0.08362516
-0.053510156 0.0043538106 -0.024160594 -0.056903698 -0.061516393 -0.036841024 -0.07163941 -0.08660391
-0.041716125 -0.07548869 -0.03986012 -0.039253477 -0.0114339115 -0.04575855 -0.093635775 0.0034660553
-0.026051845 -0.046451468 -0.042169377 -0.030870475 -0.04193983 -0.08149624 -0.048930112 -0.1292459
-0.035494495 -0.08300897 0.0057144193 -0.084088005 -0.08109436 -0.059104294 -0.08055097 0.029249532

bn1.running_mean f4 [256]
00000000: b94a b73d 2936 57bd 05d7 48bd 5fd0 ba3d
00000010: 0909 3bbe 559f 843d d65e ca3d 5243 0b3e
00000020: b5ec ca3c 87c4 70bd bbcf 8e3d 06ac e03c
00000030: 4dc9 943e a92c c9bd e504 313e a5fb 0d3e
00000040: c70f 9fbd f66b 853d 3954 b83d 7412 203e
00000050: 890c 4a3e 80ff e7bd 3fb6 89bd a103 093e
00000060: 87ea 063e d1cb 88bc fea8 7dbd 029f 80be
00000070: 046d 0b3e 32fc 9d3d 87ce f53d 6f53 84be
00000080: 8733 4ebe dd7f 2b3e dd7f 423e 0e0e 923e
00000090: 4aa9 453d f772 103d 367a 8d3c b6b6 b4bd
000000a0: 9354 523e a8f1 f23d 43f1 133e 8140 393d
000000b0: 6327 013e 72bc fb3d 7244 343e 2364 a33d
000000c0: 1ebd 093e 79af fb3c c9a1 283e 267c bf3d
000000d0: c24a 223d 9a54 fa3d ba18 ea3d 8e18 9b3c
000000e0: a998 41bd 657a 27bd d93c c33e 2886 963d
000000f0: 383f 2ebd e4c7 93be 90a9 743e 8e69 f53d
00000100: 9e1a 0a3d cba8 263c 3d5d 80bd d8ad 443c
00000110: e378 363d 25d0 01bc 78bd f93d 74b2 a1bc
00000120: 9ccd aebd 4991 943d aab8 113e da69 c23c
00000130: d023 fcbc 45cb bebd 53ee 543e 4c6e c1bc
00000140: d6bb cabc 3ebb dc3d ee74 f2bd 7e00 debd
00000150: 775c a93d cf3b 1fbd 211f ee3c de4f fc3d
00000160: ae2d 9c3d 2df7 85bd 60a5 cf3d f208 4fbe
00000170: 249e 693e 0ed4 32bd f1c8 6ebd 6d5c 1b3d
00000180: 7214 8f3e 7772 c23d 40b2 b1bd fe54 013d
00000190: 5de4 54be a184 d53d 1a12 58bd 9811 493e
000001a0: b95a 983d 0636 073e 03e1 993d 9c3b 3e3d
000001b0: 7369 8b3e 1342 b1bd f49b d3bd 441f d5bc
000001c0: 8e41 213e c0db 0e3e ba7d 20be 1f29 723d
000001d0: 5d89 0ab7 5e3e a63b fa05 c23c 1781 21be
000001e0: 5606 3cbc 78b7 57bd 359b 6dbc e434 9dbd
000001f0: 7cb7 e3bd ae81 e63d 907a c7bd 49ec cd3e
00000200: 96a7 8e3e eafc dcbd abca 0dbe 305c 4abd
00000210: 2192 003e f7ae f4bc e881 2f3c 5ca6 c1bd
00000220: c539 a0b9 80da b6bc d83e 1bbd 8e28 2a3d
00000230: f4f3 05be c1bc 5d3d 4d62 9e3d 3ded 53be
00000240: 106e 6dbd 0cfa 813d 7423 be3b 1759 043b
00000250: 20ed 2a3e a15f 863e be9d a23c e683 0abd
00000260: 2906 8b3e 501c d43d 758f 643e 25e5 0fbe
00000270: d575 f53d 2bd2 223e 00b0 853d ba6b aebd
00000280: 160e 2c3e 5f02 00bd 552a 203e 31de ef3c
00000290: deb8 3dbc 10a7 303e 7a0f 1f3c eb8b 693e
000002a0: 22ba 06be 1704 f13d 39d0 ad3d c8e5 a6bc
000002b0: cf94 573d afd9 0fbe e46f 46bd dd85 db3e
000002c0: 8c9f 2ebe 2133 93be fa53 41bd a528 5b3e
000002d0: 822c d43d e230 6abd fc1c 62bd 6f03 b5bd
000002e0: c4c9 d63d b256 a2be 36ef d33c d265 e2bd
000002f0: c4e3 22bd 5f3f 473e f19e 16be dd8d 09be
00000300: 9515 753d 2d91 10bd e60d 02bd faa5 63be
00000310: 6cdb 4ebe 4d01 f7bb bd7b cd3c 0539 2ebe
00000320: 2736 4dbd 3b5c 7ebd fad3 c23c 9200 79bb
00000330: 1c79 9bbd 400d a73c a19c cbbd 9cce 33bd
00000340: 17ad 52be aee0 c73d 8d5c 353d 5579 f73d
00000350: 1534 c7bd bdb4 79be fad7 8ebd 614e 5eba
00000360: 0f34 333e 2cac 153e 1808 bebb ddaf 4a3e
00000370: df34 4cbe b6f2 ab3d f63e 8e3e 0cda eb3d
00000380: c207 803d 2f3a 803e 1cd2 bdbc 62f7 23be
00000390: d9ef bfbc 0f9c 963d 21fb dabd 5878 5c3d
000003a0: be0c 50be 48e3 653d f21f 4e3d 5e9d dd3d
000003b0: 5b45 3a3d 3bc9 f13d cf6f 41be 5c6c e6bd
000003c0: 0209 bf3d e732 873d c63f b0bd b2be 8b3e
000003d0: 31bd dbbd 01c3 2f3e d97b d33d 14d0 713e
000003e0: 18e0 7fbd 3c13 203e eb05 01be 71c9 b53d
000003f0: 776f 173e bb87 61bd 8a31 84bd 7d91 27bd
0.08949799 -0.052541886 -0.049033184 0.09121775 -0.18265165 0.06475703 0.0988137 0.135999
0.024771074 -0.058781173 0.06973215 0.027425777 0.2905983 -0.098229714 0.17287023 0.13865526
-0.07766681 0.065147325 0.09000439 0.1563204 0.19731344 -0.1132803 -0.06724214 0.1338029
0.13175403 -0.01669875 -0.06192874 -0.25121313 0.13615805 0.07714118 0.120022826 -0.25844905
-0.20136844 0.16747995 0.18994088 0.28526348 0.04825715 0.03526589 0.017270189 -0.08823912
0.20540075 0.118624985 0.14447503 0.04522753 0.12612681 0.122918025 0.17604235 0.07978084
0.13451049 0.03072332 0.16467966 0.09349851 0.039622076 0.12223168 0.114304975 0.018932607
-0.04726473 -0.04088821 0.3813236 0.07349807 -0.04254076 -0.28863442 0.23892808 0.119830236
0.03371679 0.010172079 -0.06267784 0.012004338 0.04454888 -0.007923161 0.121943414 -0.019738413
-0.085353106 0.072542734 0.142306 0.023732115 -0.030778795 -0.09316114 0.20794038 -0.023612164
-0.02474777 0.10777901 -0.11838709 -0.108399376 0.082695894 -0.038875397 0.029067578 0.12319921
0.076259 -0.06541286 0.10138965 -0.20218256 0.22814232 -0.043659262 -0.0582971 0.03792994
0.27945286 0.09494489 -0.086765766 0.031575195 -0.20790239 0.104256876 -0.052751638 0.19635618
0.07439179 0.13204202 0.07513621 0.046443567 0.2722889 -0.08655181 -0.1033248 -0.026015885
0.15747663 0.13951015 -0.15672961 0.059121247 -8.257423e-06 0.0050733527 0.02368449 -0.157719
-0.01147612 -0.052665204 -0.014502336 -0.07676104 -0.11118981 0.11255203 -0.09740174 0.40219334
0.27862233 -0.10790427 -0.13846843 -0.049404323 0.12555744 -0.029868586 0.010712124 -0.09455559
-0.0003056062 -0.022320986 -0.03790173 0.041542582 -0.13081342 0.054135088 0.07733593 -0.20695968
-0.057966292 0.06346521 0.005802566 0.0020194703 0.16692019 0.26244834 0.019850608 -0.033817194
0.27153137 0.10356963 0.2232035 -0.14052255 0.11985365 0.15900485 0.0652771 -0.08516641
0.16802248 -0.03125226 0.15641148 0.029280754 -0.01157972 0.1725123 0.00970828 0.2280728
-0.13156942 0.11768358 0.08486981 -0.02037324 0.05263215 -0.14047883 -0.04844655 0.42875567
-0.1705305 -0.28749946 -0.047199227 0.21402223 0.10360052 -0.057175525 -0.055203423 -0.088385455
0.104877025 -0.31706768 0.0258709 -0.11054577 -0.039767995 0.19457768 -0.14709069 -0.13433023
0.059835035 -0.0352947 -0.031751536 -0.22231284 -0.2020089 -0.007537997 0.025083417 -0.17013939
-0.05010047 -0.062099677 0.023782719 -0.0037994725 -0.07591459 0.02039206 -0.09941984 -0.04389821
-0.20573841 0.09759651 0.044277716 0.12083689 -0.09726731 -0.24385352 -0.06974788 -0.00084803073
0.17500328 0.1461646 -0.0057993047 0.19793649 -0.19942044 0.08395903 0.2778241 0.115161985
0.0625148 0.2504439 -0.023171477 -0.16012338 -0.023429798 0.073539846 -0.1069243 0.053825706
-0.20317361 0.056124955 0.050323434 0.10821031 0.0454763 0.1180596 -0.18890308 -0.11251137
0.0932789 0.06601506 -0.08605914 0.27293926 -0.10729445 0.17164232 0.103263564 0.23614532
-0.06246957 0.15632337 -0.12599914 0.088763125 0.14788614 -0.055061083 -0.06454761 -0.040910233

bn1.running_var f4 [256]
00000000: 6247 5b3d 83a9 743d 69de 903d 4415 603d
00000010: d5e5 653d 2e06 be3c 0e90 4c3d bca6 963d
00000020: 00c7 2c3d 2309 003d 15db 203d 48a3 bc3c
00000030: b62c 633d 9867 713d 2bd2 143d 195e 5f3d
00000040: 1d1f 3b3d 37f2 273d 4196 323d 1f6a e43c
00000050: 1f9c 143d 4529 503d c336 aa3c 91ff 253d
00000060: d102 4f3d 3b4e 103d 432d ff3c 5413 183d
00000070: 3b23 543d b148 853d daf9 a83c f3d1 f23c
00000080: 86f6 3b3d 598b 323d b726 383d 9d38 013d
00000090: 9dc6 273d d614 743d 4463 043d 7144 943d
000000a0: 3eec a43d bef0 253d 692f 8d3d b939 0f3d
000000b0: aa9c c83c e0a8 7d3d 2726 1e3d f4b9 ee3c
000000c0: 0a4d 183d e077 a23d 5919 123d 4f45 803d
000000d0: 8358 a93d 1588 fe3c 0afd 803d d127 4c3d
000000e0: 1753 de3c 98c1 013d c9ef 543d c4a5 443d
000000f0: 8a8a 5c3d 7f5e 853d 7d12 783d cbfd a63d
00000100: 5ed1 e03c 5bee 473d 939f 1f3d f965 ce3c
00000110: 3088 433d 5ec9 803d bd62 ff3c 5d96 d13c
00000120: b072 4d3d efb7 873d 66ff 9e3d 6d69 ea3d
00000130: d112 663d c31d 193d 815a 5e3d 5237 6b3d
00000140: 6b44 1c3d 29ba ea3c d6e7 3b3d 9b46 093d
00000150: e874 073d f55b a13d d94b 363d 9bbe 003d
00000160: d8d4 783d eb5d 673d a590 163d 4ec5 3a3d
00000170: cd76 a93d 3476 c53c 1abf 183d 3e48 9f3d
00000180: c386 173d 29c0 6e3d 9f1d 283d 85de 163d
00000190: 1046 5d3d 89dc 3b3d cdc4 ab3d b94a 443d
000001a0: dc29 c73d fb6f 673d 0db3 183d f83b 133d
000001b0: 64fe b03d a6c5 013e ae69 3c3d 8d64 ca3c
000001c0: 7ba7 653d fd5e 003d 3412 6c3d 2f22 073d
000001d0: e474 183d 5ba3 3e3d fd18 563d 5252 d13c
000001e0: 5ffd 3c3d 350a b53d 8ced ad3d 0977 143d
000001f0: 2ed3 663d c75c 8c3d cfc6 733d b648 893d
00000200: 5f87 853d d8fa d53d fb80 313d 31c1 493d
00000210: 73a5 cb3c 8129 353d ccd3 9a3d ae4b 793d
00000220: 5a8c b13d 42c9 273d cf5a 5a3d 0dac 323d
00000230: 0c8d 1b3d fe77 f33c ae72 063d 314c 9e3c
00000240: 1aa2 133d a3a1 3d3d 43ae 993d 7083 5f3d
00000250: 5721 3b3d 414f 903d 23d8 603d 446f 183d
00000260: 9030 693d 4cf7 1d3d 1b96 273d e2e3 0d3d
00000270: 6e69 a63d 4977 f43c 1ccc 563d 032e 453d
00000280: 95bc 543d 69a5 693d 1fff cf3d ea6a 083d
00000290: 2297 f53c 7551 e83c 3222 923d 7562 473d
000002a0: c90b 163d 82ed c53d 4d1c b23d 69be 4a3d
000002b0: ec05 053d 4b1a 1f3d f1d6 ba3c c29d 473d
000002c0: fe05 133d 5552 6c3d 7b39 e03c 7315 553d
000002d0: b630 343d d5ed 553d a2d0 1d3d f71b 093d
000002e0: e203 f23c 67fc 833d 0972 203d 278d 323d
000002f0: 11be 723d 7129 3a3d 6bf8 403d 3d25 473d
00000300: 15d1 943d 86cd 7e3d 20bb fd3c 36a7 8d3d
00000310: 775a 433d 74e7 1f3d a70f 803d f2bd 943d
00000320: f796 023d ca89 c13d 4972 ba3c 34e5 053e
00000330: 7189 0b3d bfc1 933d 6684 393d 5b26 083d
00000340: 593f 193d 0252 843d 626f 153d c717 3f3d
00000350: 528c 1f3d 7561 013d e45e 603d f021 af3d
00000360: ac47 423d 402a aa3d a350 2e3d fbe7 4e3d
00000370: 5600 d83c 585f 7e3d 085e 873d 236a df3c
00000380: 5ec1 263d 697f 8b3d 60b6 593d a14f 243d
00000390: 17d1 fc3c 6642 843d 8bdb 5c3d b25c 983d
000003a0: 30bb b53c 025f 8c3d c806 273d caa3 3b3d
000003b0: fe90 783d 86b6 333d 496c 423d 8505 8b3d
000003c0: 8c4b f73c 4dbc 703d b75e 013d 495d 753d
000003d0: 3c87 2e3d 240a c43c a4f0 463d f7bc 633d
000003e0: 914a 5a3d 8151 323d 98a6 a13d fb57 833d
000003f0: 532c 593d f431 043d 137e e43c a999 913d
0.053534873 0.05973197 0.07073671 0.05470778 0.056127388 0.023196306 0.04994207 0.07356021
0.04218197 0.031258713 0.039271433 0.023027077 0.05546256 0.058936685 0.036333244 0.054533098
0.04568397 0.04100248 0.043600325 0.027882634 0.0362817 0.050820608 0.020778066 0.04052693
0.050539795 0.035230856 0.031149512 0.037127808 0.05179141 0.065080054 0.020626951 0.029641127
0.0458894 0.043589924 0.044958796 0.03154813 0.040960897 0.059590183 0.03232123 0.07239617
0.08052872 0.040512793 0.068938084 0.034967158 0.024488766 0.06192863 0.038610604 0.029141404
0.037182845 0.079330206 0.035668705 0.062632196 0.082688354 0.031070748 0.06298263 0.04984266
0.02713923 0.031678766 0.05198649 0.04800965 0.05384306 0.06512164 0.060564507 0.08153876
0.027443584 0.048811298 0.03897054 0.025195109 0.0477373 0.06288408 0.031175012 0.025584394
0.050158203 0.066268794 0.07763557 0.114458896 0.05617029 0.0373819 0.05428553 0.057425804
0.038151186 0.028653221 0.045875393 0.0335146 0.033070475 0.078788675 0.044505928 0.031431776
0.06074986 0.05648605 0.036759038 0.04559832 0.082746126 0.024104215 0.037291624 0.07777451
0.036993753 0.058288727 0.041043874 0.036833305 0.054021895 0.045864616 0.08387146 0.047922824
0.09724781 0.056503277 0.03728013 0.035945863 0.08642271 0.12673053 0.04599922 0.02470615
0.056067925 0.031340588 0.057634547 0.032991584 0.03722085 0.046542507 0.052269924 0.025551949
0.04614007 0.088398375 0.08492574 0.036246333 0.05635374 0.068536334 0.05951577 0.06703322
0.065199606 0.10448235 0.043335896 0.049256507 0.024859166 0.044229034 0.07559928 0.06086319
0.08669348 0.04096342 0.053309258 0.04362111 0.03797631 0.029720303 0.03282421 0.01932344
0.036043264 0.046296727 0.07503941 0.054568708 0.045686092 0.070463665 0.054893624 0.037215486
0.05693108 0.03856592 0.040914636 0.034641154 0.08125578 0.029842036 0.052440748 0.048139583
0.05193766 0.057042513 0.10156082 0.033305086 0.029979292 0.028359154 0.071354285 0.04867788
0.036632333 0.09664442 0.08696804 0.049497996 0.03247635 0.038843434 0.02280757 0.048734434
0.035894386 0.057695705 0.027371159 0.05202241 0.043991767 0.052228767 0.038529046 0.033473935
0.029542867 0.06444626 0.039171252 0.043591645 0.059263293 0.045449678 0.04711191 0.048619498
0.07266442 0.06220772 0.030973017 0.069166586 0.047693696 0.03903909 0.062529854 0.07262792
0.031882253 0.09450109 0.022759574 0.13075715 0.03406662 0.072146885 0.04529228 0.033239704
0.03741393 0.06460954 0.036483176 0.046653535 0.03895218 0.031587083 0.054777995 0.08551395
0.047431633 0.0830884 0.04255737 0.050514203 0.026367348 0.062102646 0.06609732 0.02727229
0.040711753 0.06811411 0.053152442 0.040115003 0.03086142 0.06457977 0.05392031 0.07439555
0.022183985 0.06854059 0.04077795 0.0458105 0.06068515 0.04387524 0.04746655 0.06788162
0.03018739 0.058773328 0.031584468 0.059903417 0.04260944 0.023930617 0.048569337 0.055600133
0.05329377 0.04353476 0.07893103 0.06413265 0.053020786 0.0322742 0.027892148 0.071093865

layer2.weight f4 [128, 256]
00000000: a4b4 cabc bf32 8c3b bdf7 f03c 664f 133d
00000010: c027 54bd ed8f 04bd e9f5 103d 4a1b 4d3b
00000020: e807 17bc bd07 99bb 3bb8 4a3d 8127 e5bb
00000030: cce3 d0bc 7f33 203d de61 073d 756f 7cbd
00000040: 6849 e73c 79e6 6b3d 5fe9 1fbd 8aad 8b3c
00000050: 085d 223d 81b4 a0bc 123f 6e3c 91d4 0c3d
00000060: fb21 26bc 7816 52bc 7a29 22bb 9f01 803c
00000070: d602 0d3d 97dc a93c bae6 1ebc 2093 54bc
00000080: e063 4c3c 2856 a33d c6fd 8c3d 069d 2ebd
00000090: ec37 3b39 3961 743c 4d66 0fbc 981f 46bb
000000a0: 4581 443d 0fe0 33bd d1ec 3cbd e8cc 3d3d
000000b0: 48ab 49bd 4271 993d 439c 113d 3130 3ebd
000000c0: 6b93 91bc a5e9 6f3d 165f 00bb c8ac 203d
000000d0: 0678 f33c 8662 c5ba e47c aa3c 519d a53c
000000e0: 80eb 4f3b 45c9 31bc 5b78 70bd cfbe 6cbd
000000f0: 46f6 bd3d 49c1 a53d 2d6f adbb 86bc 3d3c
00000100: cf58 72bc b4e7 5e3d 9200 603d de34 8fbc
00000110: 26b9 973d 4323 78bc c2a5 0a3c ac94 cdbc
00000120: eae1 0ebd 5114 acbc 5624 8e3d b80a 89bc
00000130: 7bd5 9b3d c68b e93c 8e8a 903d 5d0f 25bd
00000140: 25b8 a33c 55a6 0a3d 53f4 533c ba69 e13c
00000150: 7198 9cbc 1f67 2fbc d51a 53bd 1ca2 82bd
00000160: 43ac d0bb 138d 3f3c a016 d1bc 77d3 833c
00000170: fc66 363d 5647 243d 3121 763d 36d3 b8bc
00000180: c0c5 5dbc 3a81 303d 499e 5fbc fc19 59bc
00000190: 57a2 05bd 71a3 27bd 6223 a13c 1334 9a3a
000001a0: a93f c1bc f5c0 593d 2b54 503c 4a92 39bd
000001b0: a088 323b 0809 613c df21 2a3d 3ce2 87b8
000001c0: fc1b 81bd ddb5 873d 3559 323d e1e4 0c3d
000001d0: 5b1c 953d 98ee ccbc 53c1 1ebd 1b16 5d3c
000001e0: 8590 7ebb 1ac4 3f3d 8a6b 9f3b af58 b8bc
000001f0: 23fa 32bd a694 033d d8ea 05bd f1c7 8abd
00000200: 2a86 f93c adb8 94b8 70ce c83b 6e35 1abd
00000210: 1b39 4abd f83a 9a3c b559 9abc c275 c8bb
00000220: 1081 b73d f213 52bd 3754 67bd 1f46 2abd
00000230: 7beb c0bc 969d 1dbc d94d 35bc da81 eabc
00000240: 7fea 5cbc d6b1 7f3c ce2b 0a3d 48d0 383d
00000250: 767d 7d3d 90c7 a73c 9663 793c bba7 dbbb
00000260: c13a 1c3d d11b 093b 9842 ccbc 664f 863c
00000270: de25 27bc 9605 42bd 473d 613d 8baa 13ba
00000280: 1b97 ad3d a0cf 6f3d cb9b ac3b 885c 5e3b
00000290: 16df 18bc eaba f3bc 42f4 fb3c cf22 fbbc
000002a0: ee05 a1bc afed 07bd 0165 263d 975e 71bd
000002b0: d341 89bc 20ac 473c 5872 cabc 4ac6 aabd
000002c0: 1dcf 843b 5d8e 993d 82bc 6cbc d27a 593c
000002d0: cf32 dcbc e4d4 94bd 2f68 963c 03f5 2e3d
000002e0: bf78 99bc 2ace 163d 5d45 f5bc 3acc e5bc
000002f0: cc60 173d 6000 1ebd 4a96 963c ee08 f03b
00000300: f043 a93b f55f b23d ec90 14bd 6dc3 f53c
00000310: 0f6c 673c 65d8 beb9 236d 70bd cd66 b339
00000320: bc38 f63c 89b4 3e3d 5053 f9bc 1d69 523d
00000330: 1afb 64bd 0b25 c6bc 3879 033b 5387 46bd
00000340: d79a 95bc f03f 43bb b2c8 33bd 3e6f bdbb
00000350: 6595 7fbb 537e 223d 361b aa3a 31b8 0d3d
00000360: 4c57 c9bb dafa fe3b 1b19 34bc 3147 0bba
00000370: 26a5 40bb 30c8 553b 38f6 46bb fdc2 413c
00000380: d399 1ebc 3a23 c9bd 1d66 793c c5c0 a13d
00000390: 4b06 18bd 6553 1fbd 321b a83d cab4 b43c
000003a0: 4a00 45bc a2cb eb3c 5306 2bbd c072 2b3d
000003b0: 804f 4a3d d6e1 893c 3d76 253d 8b1d aa3b
000003c0: cdc2 93bd 009b a23c 9ebd 7e3c ba06 bbbd
000003d0: 4187 743d 1021 78bc d2bf 50bc 3190 ca3d
000003e0: 630f a1bd ae5f 113b da9a fd3b 66c9 6b3d
000003f0: 8cfa 93bb 12e5 293c be05 953b cd03 12bd
-0.02474434 0.0042785103 0.029415006 0.035964392 -0.05179572 -0.03236382 0.03539077 0.0031296783
-0.009218194 -0.004670112 0.049492102 -0.0069932346 -0.025499247 0.03911161 0.033052318 -0.06162973
0.028233245 0.057592843 -0.03904092 0.017050523 0.039639503 -0.019617321 0.014541404 0.034382407
-0.0101399375 -0.01282274 -0.002474396 0.015625773 0.034426533 0.020735068 -0.009698564 -0.01297453
0.012474984 0.079754174 0.06884341 -0.042630218 0.00017854542 0.014915758 -0.008752418 -0.0030231234
0.047974844 -0.04391485 -0.046124283 0.046337992 -0.049235612 0.07492305 0.035549413 -0.046432678
-0.01777049 0.05857243 -0.0019587926 0.039227277 0.029720318 -0.001505927 0.020811506 0.020216616
0.0031726062 -0.010851209 -0.05870853 -0.057799157 0.092754886 0.08093507 -0.005292794 0.011580592
-0.014791681 0.054420188 0.054688044 -0.017481264 0.07408361 -0.015145126 0.008462371 -0.025095306
-0.034883417 -0.021005781 0.06940524 -0.016728744 0.076090775 0.028509032 0.07057677 -0.040297855
0.019985268 0.033850033 0.012936669 0.027516235 -0.019115658 -0.010705738 -0.05153926 -0.06378576
-0.0063681914 0.01169135 -0.025523484 0.016092045 0.044531807 0.040107094 0.060090248 -0.02256165
-0.013535917 0.04309199 -0.013648578 -0.013250824 -0.032625522 -0.040927354 0.019670192 0.0011764787
-0.023589926 0.053162534 0.01271538 -0.045305528 0.002724208 0.013735063 0.04153621 -6.479441e-05
-0.06304166 0.066264845 0.043542106 0.034397963 0.07280799 -0.025016114 -0.038758587 0.01349404
-0.0038843465 0.046817876 0.0048651146 -0.022503225 -0.04369558 0.032124184 -0.032694668 -0.06776417
0.030459482 -7.0915885e-05 0.006128125 -0.03764861 -0.049370866 0.018826947 -0.018841604 -0.0061175535
0.089601636 -0.051288553 -0.056476798 -0.04157078 -0.023549786 -0.009620091 -0.011065924 -0.028626371
-0.013483643 0.015606364 0.03373318 0.045120507 0.061887227 0.020480901 0.015221497 -0.0067033446
0.03814197 0.002092112 -0.024934098 0.016395282 -0.010201899 -0.04736861 0.05499008 -0.0005633018
0.08476087 0.058547616 0.0052675954 0.0033929665 -0.009330532 -0.029752214 0.03075612 -0.030656246
-0.019656148 -0.033185657 0.04062367 -0.0589281 -0.01675502 0.012187034 -0.024712726 -0.08338602
0.00405301 0.07497857 -0.014449241 0.013273912 -0.026879696 -0.07267168 0.018360225 0.04271413
-0.018734334 0.036817707 -0.029940302 -0.028051484 0.036957547 -0.038574576 0.01838221 0.0073252833
0.0051655695 0.087097086 -0.03627102 0.030000413 0.014124884 -0.0003640085 -0.05869783 0.00034218133
0.03005635 0.04655889 -0.030435234 0.051369775 -0.05590353 -0.024187585 0.0020061266 -0.0484689
-0.01826231 -0.0029792748 -0.04389257 -0.0057810834 -0.0038998958 0.039671253 0.001297808 0.034599487
-0.00614444 0.0077813687 -0.010992314 -0.00053130375 -0.002939531 0.0032620542 -0.003035916 0.011826274
-0.009680229 -0.09821172 0.0152221 0.07898096 -0.037115376 -0.03889789 0.08208312 0.022058863
-0.012023995 0.028783623 -0.041754078 0.04185748 0.049392223 0.01683132 0.040395964 0.00519151
-0.0721489 0.0198493 0.015548138 -0.09132142 0.0596993 -0.015144601 -0.012741046 0.098907836
-0.07864263 0.0022182274 0.007739407 0.057565115 -0.0045159515 0.010369556 0.0045478037 -0.035648156

layer2.bias f4 [128]
00000000: d5d2 88bc 30a1 343d 1564 7cbc e362 06bd
00000010: 8917 04bd 5e8d 0ebd cbd4 43bd 714b d4bc
00000020: 56ca c5ba 8a63 e8bb afaa b2bc 5e83 0e3b
00000030: d328 8abd 7a39 443c 64ef 43bd 6bf8 89bd
00000040: 563d 0cbd c2ec 70bd 34cd 00bd 0fd9 383d
00000050: 1ba9 11bc e8c5 bb3c 3896 0fbd bb80 63bc
00000060: 4569 88bc 6914 4b3d a951 ee3c f17b 5b3c
00000070: 7212 8d3b 9836 03bc 923d 62bd 79b6 2ebd
00000080: 0577 733d e817 073b d671 4ebd 5f79 1ebd
00000090: 2643 003c 7307 843c b7e1 18bd 9c89 fabb
000000a0: c607 81bd 2ecb 91bd 665a 8cbc 3d90 1f3b
000000b0: 9170 a7bc 4283 a0bc c5f6 3abd 0a7a d5bc
000000c0: 52c8 39bb 1066 52bd 04e4 b7bb ccb5 69bd
000000d0: ee15 61bd 6196 5a3d 96ba b7bc 7ea8 c7bc
000000e0: 286c 41bc dd6d 13bd 4985 cebc 246e bb3c
000000f0: 6f75 e93c 0ec7 533d 59a9 4e3d afde 93bc
00000100: dc90 e33b ef14 fc3c 9201 08bc 6c66 07bd
00000110: fa56 e5bc a20a cd3c b977 b73c a587 ccba
00000120: d5cf 9abc 7a10 0b3d 90f3 5cbd 8283 eb3c
00000130: fc3a 79bd d4ac 483d bfc2 633c d34c 16bd
00000140: d3f7 6b3d 4a86 b63a e50b 8fbc 9f50 34bc
00000150: cdc9 79bd a780 adbd 6b67 37bd c409 ac3d
00000160: 0270 d73b f770 533d 50df 1c3d 0f7c 0d3d
00000170: 96cb 3abd d6ec a6bb f627 bd3b 5f7b 313d
00000180: 037c f3bc 40b9 6fbd cb62 97bd 3841 613b
00000190: 3253 d03c 96ce 41bc b10d 1d3d 2f84 1dbd
000001a0: 6105 923c a390 743d 4835 273c 152f e23c
000001b0: 888c 8bbc d2af 6a3d 0380 003c a6ce 4f3d
000001c0: a7d8 623d 2377 c43c 81f5 4d3c 743b ebbb
000001d0: 4bd7 cfbc 0b77 a7bc b995 043d 60e3 5cbd
000001e0: d663 48bd 13c9 133b 516d bd3d 145f 62bd
000001f0: 9fd4 7b3d a39b abbd 1dec f6bb 7925 94bc
-0.016702095 0.044099033 -0.015404721 -0.03280915 -0.032249007 -0.034802787 -0.047810357 -0.02591488
-0.0015090208 -0.007091944 -0.021809904 0.0021745781 -0.06746068 0.011976594 -0.047835723 -0.06736835
-0.034238182 -0.05881954 -0.031445697 0.04512888 -0.008890416 0.022921517 -0.03505537 -0.013885672
-0.016651759 0.04958001 0.029091673 0.013396249 0.0043051774 -0.008008622 -0.0552345 -0.04265449
0.059439678 0.0020613614 -0.05040153 -0.038689967 0.007828509 0.016116833 -0.037324633 -0.007645799
-0.06300311 -0.071188316 -0.01713295 0.0024347447 -0.020439418 -0.019593839 -0.045645494 -0.02605917
-0.002834816 -0.051366866 -0.0056118984 -0.05705814 -0.054952554 0.05336607 -0.022427838 -0.024372336
-0.011805572 -0.035993446 -0.02521004 0.022879668 0.02849838 0.051703505 0.05045447 -0.01805052
0.006944759 0.0307717 -0.008301156 -0.03305666 -0.027995575 0.025029484 0.022395955 -0.001560439
-0.01889793 0.03395126 -0.053943217 0.028749231 -0.060847268 0.048992947 0.013901412 -0.03669436
0.05760939 0.0013925519 -0.017461726 -0.01100555 -0.060983468 -0.08471804 -0.04477636 0.084003
0.0065746317 0.051621404 0.038298905 0.03454214 -0.04560431 -0.005094151 0.005772586 0.043330546
-0.02972222 -0.058526278 -0.0739189 0.0034371149 0.025430296 -0.011829039 0.038343135 -0.03845614
0.01782483 0.05970825 0.010205574 0.027610341 -0.017034784 0.05729658 0.00784302 0.050734185
0.055382397 0.02398259 0.01257074 -0.007178718 -0.025371214 -0.020442506 0.03236935 -0.05392778
-0.048923336 0.002255027 0.09249366 -0.055266455 0.06148207 -0.08379295 -0.007535471 -0.018084275

bn2.weight f4 [128]
00000000: eb69 793f 32c4 773f 5a73 803f 4bf9 7e3f
00000010: a8fa 653f c8ce 7a3f a9db 983f ab1a 6a3f
00000020: f60e 743f 195e 773f d44d 793f 0411 5e3f
00000030: 6694 863f 6da1 823f 4685 683f c4e3 6a3f
00000040: 6430 7e3f 8ef9 683f 7840 903f 9716 863f
00000050: 1fbc 6c3f 2ff5 803f 0aa1 653f bde9 863f
00000060: f31a 793f addc 853f 68cf 653f 1234 633f
00000070: 056d 643f c753 673f 092c 863f eeac 793f
00000080: 0a73 753f 4d7f 7e3f d939 723f 710d 723f
00000090: 255c 763f 9061 823f afaf 763f 73cb 733f
000000a0: 782f 6a3f 8ff2 823f 7203 753f 4647 813f
000000b0: 577d 723f 564e 803f 8242 6e3f a159 6e3f
000000c0: 5bd8 783f d523 933f 82da 7f3f 4130 7a3f
000000d0: b0a6 773f fc79 703f 4ef3 813f 6468 7a3f
000000e0: 5b81 8e3f 3ad9 6f3f 1393 6f3f b1fd 6a3f
000000f0: e8f9 893f 02be 833f c37b 843f 10cb 813f
00000100: 4fed 8a3f aa5a 6e3f 9c11 7c3f e362 813f
00000110: 0c10 6e3f 5999 723f e5e8 8a3f 349b 6c3f
00000120: 452a 603f fc06 6e3f 2b81 753f 7af9 7d3f
00000130: 18f7 7b3f 29e2 833f 8d96 843f f40a 703f
00000140: 6025 763f d717 7b3f bf10 6f3f 8eeb 6b3f
00000150: a30f 763f 30fd 743f 2694 8b3f 57f0 853f
00000160: 8e3c 753f 9507 633f e4e4 793f f8ff 6b3f
00000170: e85c 6c3f 43d8 743f ecca 893f cde0 6c3f
00000180: 91e6 823f a0f8 733f 488d 843f cbcc 683f
00000190: 659b 7b3f 4ada 8c3f 48c4 683f 5a0c 7d3f
000001a0: 8875 613f b8b8 673f 8ef7 843f 99bf 7a3f
000001b0: a76a 793f db53 773f e4b7 733f 2b87 703f
000001c0: d54b 643f eef8 813f d465 6c3f f2bf 8f3f
000001d0: b1c9 803f 5235 7c3f fe1a 843f 1abf 7e3f
000001e0: 5560 723f 9301 663f 172a 6b3f 010d 743f
000001f0: fa97 7e3f a2c0 863f 4ecc 773f f40d 6c3f
0.97427243 0.96783745 1.0035203 0.9959914 0.89835596 0.97971773 1.1942035 0.9144694
0.9533533 0.96627957 0.9738438 0.86744714 1.0514038 1.0205513 0.9082836 0.9175379
0.9929259 0.9100579 1.1269674 1.0475644 0.9247455 1.0074824 0.8969885 1.0540081
0.97306746 1.045797 0.897696 0.8875133 0.8922885 0.9036221 1.0482188 0.97529495
0.9587866 0.99412996 0.9461952 0.9455176 0.9623435 1.0186024 0.9636182 0.95232314
0.9147868 1.0230273 0.9570838 1.0099876 0.94722503 1.0023906 0.9307023 0.9310551
0.9720513 1.149531 0.9994279 0.9772988 0.9673872 0.93936133 1.0152376 0.9781554
1.1133226 0.93690836 0.9358379 0.9179335 1.077939 1.0292361 1.0350269 1.0140095
1.0853671 0.9310709 0.9846437 1.0108303 0.92993236 0.9476524 1.0852324 0.9242432
0.875645 0.9297941 0.9590022 0.99208796 0.9842391 1.0303394 1.0358444 0.93766713
0.9615078 0.9808325 0.9338493 0.921563 0.9611761 0.95698833 1.0904586 1.0463971
0.95795524 0.88683444 0.97614884 0.9218745 0.92329264 0.9564249 1.0765052 0.9253052
1.0226613 0.95301247 1.0355616 0.9093749 0.9828399 1.1004117 0.909245 0.9884697
0.88069963 0.90516233 1.0388048 0.97948605 0.97428364 0.9661233 0.9520247 0.9395625
0.8917821 1.0154092 0.9234288 1.1230452 1.0061551 0.9851886 1.0320737 0.9951035
0.9467824 0.8984615 0.918611 0.9533234 0.9945065 1.0527537 0.9679612 0.9220879
